<?xml version="1.0"?>
<net name="Model0" version="11">
	<layers>
		<layer id="0" name="state" type="Parameter" version="opset1">
			<data shape="1,6" element_type="f32" />
			<output>
				<port id="0" precision="FP32" names="state">
					<dim>1</dim>
					<dim>6</dim>
				</port>
			</output>
		</layer>
		<layer id="1" name="images.top" type="Parameter" version="opset1">
			<data shape="1,3,384,384" element_type="f32" />
			<output>
				<port id="0" precision="FP32" names="images.top">
					<dim>1</dim>
					<dim>3</dim>
					<dim>384</dim>
					<dim>384</dim>
				</port>
			</output>
		</layer>
		<layer id="2" name="images.front" type="Parameter" version="opset1">
			<data shape="1,3,384,384" element_type="f32" />
			<output>
				<port id="0" precision="FP32" names="images.front">
					<dim>1</dim>
					<dim>3</dim>
					<dim>384</dim>
					<dim>384</dim>
				</port>
			</output>
		</layer>
		<layer id="3" name="images.header" type="Parameter" version="opset1">
			<data shape="1,3,384,384" element_type="f32" />
			<output>
				<port id="0" precision="FP32" names="images.header">
					<dim>1</dim>
					<dim>3</dim>
					<dim>384</dim>
					<dim>384</dim>
				</port>
			</output>
		</layer>
		<layer id="4" name="__module._model/aten::zeros/Convert_compressed" type="Const" version="opset1">
			<data element_type="f16" shape="" offset="0" size="2" />
			<output>
				<port id="0" precision="FP16" />
			</output>
		</layer>
		<layer id="5" name="__module._model/aten::zeros/Convert" type="Convert" version="opset1">
			<data destination_type="f32" />
			<rt_info>
				<attribute name="decompression" version="0" />
			</rt_info>
			<input>
				<port id="0" precision="FP16" />
			</input>
			<output>
				<port id="1" precision="FP32" />
			</output>
		</layer>
		<layer id="6" name="Constant_19557" type="Const" version="opset1">
			<data element_type="i64" shape="1" offset="2" size="8" />
			<rt_info>
				<attribute name="precise" version="0" />
			</rt_info>
			<output>
				<port id="0" precision="I64">
					<dim>1</dim>
				</port>
			</output>
		</layer>
		<layer id="7" name="Constant_66086_compressed" type="Const" version="opset1">
			<data element_type="f16" shape="1, 3, 1, 1" offset="10" size="6" />
			<output>
				<port id="0" precision="FP16">
					<dim>1</dim>
					<dim>3</dim>
					<dim>1</dim>
					<dim>1</dim>
				</port>
			</output>
		</layer>
		<layer id="8" name="Constant_66086" type="Convert" version="opset1">
			<data destination_type="f32" />
			<rt_info>
				<attribute name="decompression" version="0" />
			</rt_info>
			<input>
				<port id="0" precision="FP16">
					<dim>1</dim>
					<dim>3</dim>
					<dim>1</dim>
					<dim>1</dim>
				</port>
			</input>
			<output>
				<port id="1" precision="FP32">
					<dim>1</dim>
					<dim>3</dim>
					<dim>1</dim>
					<dim>1</dim>
				</port>
			</output>
		</layer>
		<layer id="9" name="__module._input_normalizer/aten::sub/Subtract_1" type="Add" version="opset1">
			<data auto_broadcast="numpy" />
			<input>
				<port id="0" precision="FP32">
					<dim>1</dim>
					<dim>3</dim>
					<dim>384</dim>
					<dim>384</dim>
				</port>
				<port id="1" precision="FP32">
					<dim>1</dim>
					<dim>3</dim>
					<dim>1</dim>
					<dim>1</dim>
				</port>
			</input>
			<output>
				<port id="2" precision="FP32" names="41">
					<dim>1</dim>
					<dim>3</dim>
					<dim>384</dim>
					<dim>384</dim>
				</port>
			</output>
		</layer>
		<layer id="10" name="Constant_66087_compressed" type="Const" version="opset1">
			<data element_type="f16" shape="1, 3, 1, 1" offset="16" size="6" />
			<output>
				<port id="0" precision="FP16">
					<dim>1</dim>
					<dim>3</dim>
					<dim>1</dim>
					<dim>1</dim>
				</port>
			</output>
		</layer>
		<layer id="11" name="Constant_66087" type="Convert" version="opset1">
			<data destination_type="f32" />
			<rt_info>
				<attribute name="decompression" version="0" />
			</rt_info>
			<input>
				<port id="0" precision="FP16">
					<dim>1</dim>
					<dim>3</dim>
					<dim>1</dim>
					<dim>1</dim>
				</port>
			</input>
			<output>
				<port id="1" precision="FP32">
					<dim>1</dim>
					<dim>3</dim>
					<dim>1</dim>
					<dim>1</dim>
				</port>
			</output>
		</layer>
		<layer id="12" name="__module._input_normalizer/aten::div/Divide_1" type="Divide" version="opset1">
			<data auto_broadcast="numpy" m_pythondiv="true" />
			<input>
				<port id="0" precision="FP32">
					<dim>1</dim>
					<dim>3</dim>
					<dim>384</dim>
					<dim>384</dim>
				</port>
				<port id="1" precision="FP32">
					<dim>1</dim>
					<dim>3</dim>
					<dim>1</dim>
					<dim>1</dim>
				</port>
			</input>
			<output>
				<port id="2" precision="FP32" names="43,input.5">
					<dim>1</dim>
					<dim>3</dim>
					<dim>384</dim>
					<dim>384</dim>
				</port>
			</output>
		</layer>
		<layer id="13" name="Multiply_65446_compressed" type="Const" version="opset1">
			<data element_type="f16" shape="64, 3, 7, 7" offset="22" size="18816" />
			<output>
				<port id="0" precision="FP16">
					<dim>64</dim>
					<dim>3</dim>
					<dim>7</dim>
					<dim>7</dim>
				</port>
			</output>
		</layer>
		<layer id="14" name="Multiply_65446" type="Convert" version="opset1">
			<data destination_type="f32" />
			<rt_info>
				<attribute name="decompression" version="0" />
			</rt_info>
			<input>
				<port id="0" precision="FP16">
					<dim>64</dim>
					<dim>3</dim>
					<dim>7</dim>
					<dim>7</dim>
				</port>
			</input>
			<output>
				<port id="1" precision="FP32">
					<dim>64</dim>
					<dim>3</dim>
					<dim>7</dim>
					<dim>7</dim>
				</port>
			</output>
		</layer>
		<layer id="15" name="__module._model.backbone.bn1/aten::mul/Multiply_1" type="Convolution" version="opset1">
			<data strides="2, 2" dilations="1, 1" pads_begin="3, 3" pads_end="3, 3" auto_pad="explicit" />
			<input>
				<port id="0" precision="FP32">
					<dim>1</dim>
					<dim>3</dim>
					<dim>384</dim>
					<dim>384</dim>
				</port>
				<port id="1" precision="FP32">
					<dim>64</dim>
					<dim>3</dim>
					<dim>7</dim>
					<dim>7</dim>
				</port>
			</input>
			<output>
				<port id="2" precision="FP32" names="269">
					<dim>1</dim>
					<dim>64</dim>
					<dim>192</dim>
					<dim>192</dim>
				</port>
			</output>
		</layer>
		<layer id="16" name="__module._model.backbone.bn1/aten::add/Multiply_1_compressed" type="Const" version="opset1">
			<data element_type="f16" shape="1, 64, 1, 1" offset="18838" size="128" />
			<output>
				<port id="0" precision="FP16">
					<dim>1</dim>
					<dim>64</dim>
					<dim>1</dim>
					<dim>1</dim>
				</port>
			</output>
		</layer>
		<layer id="17" name="__module._model.backbone.bn1/aten::add/Multiply_1" type="Convert" version="opset1">
			<data destination_type="f32" />
			<rt_info>
				<attribute name="decompression" version="0" />
			</rt_info>
			<input>
				<port id="0" precision="FP16">
					<dim>1</dim>
					<dim>64</dim>
					<dim>1</dim>
					<dim>1</dim>
				</port>
			</input>
			<output>
				<port id="1" precision="FP32">
					<dim>1</dim>
					<dim>64</dim>
					<dim>1</dim>
					<dim>1</dim>
				</port>
			</output>
		</layer>
		<layer id="18" name="__module._model.backbone.bn1/aten::add/Add_1" type="Add" version="opset1">
			<data auto_broadcast="numpy" />
			<input>
				<port id="0" precision="FP32">
					<dim>1</dim>
					<dim>64</dim>
					<dim>192</dim>
					<dim>192</dim>
				</port>
				<port id="1" precision="FP32">
					<dim>1</dim>
					<dim>64</dim>
					<dim>1</dim>
					<dim>1</dim>
				</port>
			</input>
			<output>
				<port id="2" precision="FP32" names="270_1">
					<dim>1</dim>
					<dim>64</dim>
					<dim>192</dim>
					<dim>192</dim>
				</port>
			</output>
		</layer>
		<layer id="19" name="__module._model.backbone.relu/aten::relu_/Relu" type="ReLU" version="opset1">
			<input>
				<port id="0" precision="FP32">
					<dim>1</dim>
					<dim>64</dim>
					<dim>192</dim>
					<dim>192</dim>
				</port>
			</input>
			<output>
				<port id="1" precision="FP32" names="270,input.7">
					<dim>1</dim>
					<dim>64</dim>
					<dim>192</dim>
					<dim>192</dim>
				</port>
			</output>
		</layer>
		<layer id="20" name="__module._model.backbone.maxpool/aten::max_pool2d/MaxPool" type="MaxPool" version="opset14">
			<data strides="2, 2" dilations="1, 1" pads_begin="1, 1" pads_end="1, 1" kernel="3, 3" rounding_type="floor" auto_pad="explicit" index_element_type="i64" axis="2" />
			<input>
				<port id="0" precision="FP32">
					<dim>1</dim>
					<dim>64</dim>
					<dim>192</dim>
					<dim>192</dim>
				</port>
			</input>
			<output>
				<port id="1" precision="FP32" names="276,input.11">
					<dim>1</dim>
					<dim>64</dim>
					<dim>96</dim>
					<dim>96</dim>
				</port>
				<port id="2" precision="I64">
					<dim>1</dim>
					<dim>64</dim>
					<dim>96</dim>
					<dim>96</dim>
				</port>
			</output>
		</layer>
		<layer id="21" name="Multiply_65450_compressed" type="Const" version="opset1">
			<data element_type="f16" shape="64, 64, 3, 3" offset="18966" size="73728" />
			<output>
				<port id="0" precision="FP16">
					<dim>64</dim>
					<dim>64</dim>
					<dim>3</dim>
					<dim>3</dim>
				</port>
			</output>
		</layer>
		<layer id="22" name="Multiply_65450" type="Convert" version="opset1">
			<data destination_type="f32" />
			<rt_info>
				<attribute name="decompression" version="0" />
			</rt_info>
			<input>
				<port id="0" precision="FP16">
					<dim>64</dim>
					<dim>64</dim>
					<dim>3</dim>
					<dim>3</dim>
				</port>
			</input>
			<output>
				<port id="1" precision="FP32">
					<dim>64</dim>
					<dim>64</dim>
					<dim>3</dim>
					<dim>3</dim>
				</port>
			</output>
		</layer>
		<layer id="23" name="__module._model.backbone.layer1.0.bn1/aten::mul/Multiply_1" type="Convolution" version="opset1">
			<data strides="1, 1" dilations="1, 1" pads_begin="1, 1" pads_end="1, 1" auto_pad="explicit" />
			<input>
				<port id="0" precision="FP32">
					<dim>1</dim>
					<dim>64</dim>
					<dim>96</dim>
					<dim>96</dim>
				</port>
				<port id="1" precision="FP32">
					<dim>64</dim>
					<dim>64</dim>
					<dim>3</dim>
					<dim>3</dim>
				</port>
			</input>
			<output>
				<port id="2" precision="FP32" names="306">
					<dim>1</dim>
					<dim>64</dim>
					<dim>96</dim>
					<dim>96</dim>
				</port>
			</output>
		</layer>
		<layer id="24" name="__module._model.backbone.layer1.0.bn1/aten::add/Multiply_1_compressed" type="Const" version="opset1">
			<data element_type="f16" shape="1, 64, 1, 1" offset="92694" size="128" />
			<output>
				<port id="0" precision="FP16">
					<dim>1</dim>
					<dim>64</dim>
					<dim>1</dim>
					<dim>1</dim>
				</port>
			</output>
		</layer>
		<layer id="25" name="__module._model.backbone.layer1.0.bn1/aten::add/Multiply_1" type="Convert" version="opset1">
			<data destination_type="f32" />
			<rt_info>
				<attribute name="decompression" version="0" />
			</rt_info>
			<input>
				<port id="0" precision="FP16">
					<dim>1</dim>
					<dim>64</dim>
					<dim>1</dim>
					<dim>1</dim>
				</port>
			</input>
			<output>
				<port id="1" precision="FP32">
					<dim>1</dim>
					<dim>64</dim>
					<dim>1</dim>
					<dim>1</dim>
				</port>
			</output>
		</layer>
		<layer id="26" name="__module._model.backbone.layer1.0.bn1/aten::add/Add_1" type="Add" version="opset1">
			<data auto_broadcast="numpy" />
			<input>
				<port id="0" precision="FP32">
					<dim>1</dim>
					<dim>64</dim>
					<dim>96</dim>
					<dim>96</dim>
				</port>
				<port id="1" precision="FP32">
					<dim>1</dim>
					<dim>64</dim>
					<dim>1</dim>
					<dim>1</dim>
				</port>
			</input>
			<output>
				<port id="2" precision="FP32" names="307_1">
					<dim>1</dim>
					<dim>64</dim>
					<dim>96</dim>
					<dim>96</dim>
				</port>
			</output>
		</layer>
		<layer id="27" name="__module._model.backbone.layer1.0.relu/aten::relu_/Relu" type="ReLU" version="opset1">
			<input>
				<port id="0" precision="FP32">
					<dim>1</dim>
					<dim>64</dim>
					<dim>96</dim>
					<dim>96</dim>
				</port>
			</input>
			<output>
				<port id="1" precision="FP32" names="307,input.13">
					<dim>1</dim>
					<dim>64</dim>
					<dim>96</dim>
					<dim>96</dim>
				</port>
			</output>
		</layer>
		<layer id="28" name="Multiply_65454_compressed" type="Const" version="opset1">
			<data element_type="f16" shape="64, 64, 3, 3" offset="92822" size="73728" />
			<output>
				<port id="0" precision="FP16">
					<dim>64</dim>
					<dim>64</dim>
					<dim>3</dim>
					<dim>3</dim>
				</port>
			</output>
		</layer>
		<layer id="29" name="Multiply_65454" type="Convert" version="opset1">
			<data destination_type="f32" />
			<rt_info>
				<attribute name="decompression" version="0" />
			</rt_info>
			<input>
				<port id="0" precision="FP16">
					<dim>64</dim>
					<dim>64</dim>
					<dim>3</dim>
					<dim>3</dim>
				</port>
			</input>
			<output>
				<port id="1" precision="FP32">
					<dim>64</dim>
					<dim>64</dim>
					<dim>3</dim>
					<dim>3</dim>
				</port>
			</output>
		</layer>
		<layer id="30" name="__module._model.backbone.layer1.0.bn2/aten::mul/Multiply_1" type="Convolution" version="opset1">
			<data strides="1, 1" dilations="1, 1" pads_begin="1, 1" pads_end="1, 1" auto_pad="explicit" />
			<input>
				<port id="0" precision="FP32">
					<dim>1</dim>
					<dim>64</dim>
					<dim>96</dim>
					<dim>96</dim>
				</port>
				<port id="1" precision="FP32">
					<dim>64</dim>
					<dim>64</dim>
					<dim>3</dim>
					<dim>3</dim>
				</port>
			</input>
			<output>
				<port id="2" precision="FP32" names="332">
					<dim>1</dim>
					<dim>64</dim>
					<dim>96</dim>
					<dim>96</dim>
				</port>
			</output>
		</layer>
		<layer id="31" name="__module._model.backbone.layer1.0.bn2/aten::add/Multiply_1_compressed" type="Const" version="opset1">
			<data element_type="f16" shape="1, 64, 1, 1" offset="166550" size="128" />
			<output>
				<port id="0" precision="FP16">
					<dim>1</dim>
					<dim>64</dim>
					<dim>1</dim>
					<dim>1</dim>
				</port>
			</output>
		</layer>
		<layer id="32" name="__module._model.backbone.layer1.0.bn2/aten::add/Multiply_1" type="Convert" version="opset1">
			<data destination_type="f32" />
			<rt_info>
				<attribute name="decompression" version="0" />
			</rt_info>
			<input>
				<port id="0" precision="FP16">
					<dim>1</dim>
					<dim>64</dim>
					<dim>1</dim>
					<dim>1</dim>
				</port>
			</input>
			<output>
				<port id="1" precision="FP32">
					<dim>1</dim>
					<dim>64</dim>
					<dim>1</dim>
					<dim>1</dim>
				</port>
			</output>
		</layer>
		<layer id="33" name="__module._model.backbone.layer1.0.bn2/aten::add/Add_1" type="Add" version="opset1">
			<data auto_broadcast="numpy" />
			<input>
				<port id="0" precision="FP32">
					<dim>1</dim>
					<dim>64</dim>
					<dim>96</dim>
					<dim>96</dim>
				</port>
				<port id="1" precision="FP32">
					<dim>1</dim>
					<dim>64</dim>
					<dim>1</dim>
					<dim>1</dim>
				</port>
			</input>
			<output>
				<port id="2" precision="FP32" names="333_1">
					<dim>1</dim>
					<dim>64</dim>
					<dim>96</dim>
					<dim>96</dim>
				</port>
			</output>
		</layer>
		<layer id="34" name="__module._model.backbone.layer1.0/aten::add_/Add" type="Add" version="opset1">
			<data auto_broadcast="numpy" />
			<input>
				<port id="0" precision="FP32">
					<dim>1</dim>
					<dim>64</dim>
					<dim>96</dim>
					<dim>96</dim>
				</port>
				<port id="1" precision="FP32">
					<dim>1</dim>
					<dim>64</dim>
					<dim>96</dim>
					<dim>96</dim>
				</port>
			</input>
			<output>
				<port id="2" precision="FP32" names="333_2">
					<dim>1</dim>
					<dim>64</dim>
					<dim>96</dim>
					<dim>96</dim>
				</port>
			</output>
		</layer>
		<layer id="35" name="__module._model.backbone.layer1.0.relu/aten::relu_/Relu_1" type="ReLU" version="opset1">
			<input>
				<port id="0" precision="FP32">
					<dim>1</dim>
					<dim>64</dim>
					<dim>96</dim>
					<dim>96</dim>
				</port>
			</input>
			<output>
				<port id="1" precision="FP32" names="334,input.17">
					<dim>1</dim>
					<dim>64</dim>
					<dim>96</dim>
					<dim>96</dim>
				</port>
			</output>
		</layer>
		<layer id="36" name="Multiply_65458_compressed" type="Const" version="opset1">
			<data element_type="f16" shape="64, 64, 3, 3" offset="166678" size="73728" />
			<output>
				<port id="0" precision="FP16">
					<dim>64</dim>
					<dim>64</dim>
					<dim>3</dim>
					<dim>3</dim>
				</port>
			</output>
		</layer>
		<layer id="37" name="Multiply_65458" type="Convert" version="opset1">
			<data destination_type="f32" />
			<rt_info>
				<attribute name="decompression" version="0" />
			</rt_info>
			<input>
				<port id="0" precision="FP16">
					<dim>64</dim>
					<dim>64</dim>
					<dim>3</dim>
					<dim>3</dim>
				</port>
			</input>
			<output>
				<port id="1" precision="FP32">
					<dim>64</dim>
					<dim>64</dim>
					<dim>3</dim>
					<dim>3</dim>
				</port>
			</output>
		</layer>
		<layer id="38" name="__module._model.backbone.layer1.1.bn1/aten::mul/Multiply_1" type="Convolution" version="opset1">
			<data strides="1, 1" dilations="1, 1" pads_begin="1, 1" pads_end="1, 1" auto_pad="explicit" />
			<input>
				<port id="0" precision="FP32">
					<dim>1</dim>
					<dim>64</dim>
					<dim>96</dim>
					<dim>96</dim>
				</port>
				<port id="1" precision="FP32">
					<dim>64</dim>
					<dim>64</dim>
					<dim>3</dim>
					<dim>3</dim>
				</port>
			</input>
			<output>
				<port id="2" precision="FP32" names="363">
					<dim>1</dim>
					<dim>64</dim>
					<dim>96</dim>
					<dim>96</dim>
				</port>
			</output>
		</layer>
		<layer id="39" name="__module._model.backbone.layer1.1.bn1/aten::add/Multiply_1_compressed" type="Const" version="opset1">
			<data element_type="f16" shape="1, 64, 1, 1" offset="240406" size="128" />
			<output>
				<port id="0" precision="FP16">
					<dim>1</dim>
					<dim>64</dim>
					<dim>1</dim>
					<dim>1</dim>
				</port>
			</output>
		</layer>
		<layer id="40" name="__module._model.backbone.layer1.1.bn1/aten::add/Multiply_1" type="Convert" version="opset1">
			<data destination_type="f32" />
			<rt_info>
				<attribute name="decompression" version="0" />
			</rt_info>
			<input>
				<port id="0" precision="FP16">
					<dim>1</dim>
					<dim>64</dim>
					<dim>1</dim>
					<dim>1</dim>
				</port>
			</input>
			<output>
				<port id="1" precision="FP32">
					<dim>1</dim>
					<dim>64</dim>
					<dim>1</dim>
					<dim>1</dim>
				</port>
			</output>
		</layer>
		<layer id="41" name="__module._model.backbone.layer1.1.bn1/aten::add/Add_1" type="Add" version="opset1">
			<data auto_broadcast="numpy" />
			<input>
				<port id="0" precision="FP32">
					<dim>1</dim>
					<dim>64</dim>
					<dim>96</dim>
					<dim>96</dim>
				</port>
				<port id="1" precision="FP32">
					<dim>1</dim>
					<dim>64</dim>
					<dim>1</dim>
					<dim>1</dim>
				</port>
			</input>
			<output>
				<port id="2" precision="FP32" names="364_1">
					<dim>1</dim>
					<dim>64</dim>
					<dim>96</dim>
					<dim>96</dim>
				</port>
			</output>
		</layer>
		<layer id="42" name="__module._model.backbone.layer1.1.relu/aten::relu_/Relu" type="ReLU" version="opset1">
			<input>
				<port id="0" precision="FP32">
					<dim>1</dim>
					<dim>64</dim>
					<dim>96</dim>
					<dim>96</dim>
				</port>
			</input>
			<output>
				<port id="1" precision="FP32" names="364,input.21">
					<dim>1</dim>
					<dim>64</dim>
					<dim>96</dim>
					<dim>96</dim>
				</port>
			</output>
		</layer>
		<layer id="43" name="Multiply_65462_compressed" type="Const" version="opset1">
			<data element_type="f16" shape="64, 64, 3, 3" offset="240534" size="73728" />
			<output>
				<port id="0" precision="FP16">
					<dim>64</dim>
					<dim>64</dim>
					<dim>3</dim>
					<dim>3</dim>
				</port>
			</output>
		</layer>
		<layer id="44" name="Multiply_65462" type="Convert" version="opset1">
			<data destination_type="f32" />
			<rt_info>
				<attribute name="decompression" version="0" />
			</rt_info>
			<input>
				<port id="0" precision="FP16">
					<dim>64</dim>
					<dim>64</dim>
					<dim>3</dim>
					<dim>3</dim>
				</port>
			</input>
			<output>
				<port id="1" precision="FP32">
					<dim>64</dim>
					<dim>64</dim>
					<dim>3</dim>
					<dim>3</dim>
				</port>
			</output>
		</layer>
		<layer id="45" name="__module._model.backbone.layer1.1.bn2/aten::mul/Multiply_1" type="Convolution" version="opset1">
			<data strides="1, 1" dilations="1, 1" pads_begin="1, 1" pads_end="1, 1" auto_pad="explicit" />
			<input>
				<port id="0" precision="FP32">
					<dim>1</dim>
					<dim>64</dim>
					<dim>96</dim>
					<dim>96</dim>
				</port>
				<port id="1" precision="FP32">
					<dim>64</dim>
					<dim>64</dim>
					<dim>3</dim>
					<dim>3</dim>
				</port>
			</input>
			<output>
				<port id="2" precision="FP32" names="389">
					<dim>1</dim>
					<dim>64</dim>
					<dim>96</dim>
					<dim>96</dim>
				</port>
			</output>
		</layer>
		<layer id="46" name="__module._model.backbone.layer1.1.bn2/aten::add/Multiply_1_compressed" type="Const" version="opset1">
			<data element_type="f16" shape="1, 64, 1, 1" offset="314262" size="128" />
			<output>
				<port id="0" precision="FP16">
					<dim>1</dim>
					<dim>64</dim>
					<dim>1</dim>
					<dim>1</dim>
				</port>
			</output>
		</layer>
		<layer id="47" name="__module._model.backbone.layer1.1.bn2/aten::add/Multiply_1" type="Convert" version="opset1">
			<data destination_type="f32" />
			<rt_info>
				<attribute name="decompression" version="0" />
			</rt_info>
			<input>
				<port id="0" precision="FP16">
					<dim>1</dim>
					<dim>64</dim>
					<dim>1</dim>
					<dim>1</dim>
				</port>
			</input>
			<output>
				<port id="1" precision="FP32">
					<dim>1</dim>
					<dim>64</dim>
					<dim>1</dim>
					<dim>1</dim>
				</port>
			</output>
		</layer>
		<layer id="48" name="__module._model.backbone.layer1.1.bn2/aten::add/Add_1" type="Add" version="opset1">
			<data auto_broadcast="numpy" />
			<input>
				<port id="0" precision="FP32">
					<dim>1</dim>
					<dim>64</dim>
					<dim>96</dim>
					<dim>96</dim>
				</port>
				<port id="1" precision="FP32">
					<dim>1</dim>
					<dim>64</dim>
					<dim>1</dim>
					<dim>1</dim>
				</port>
			</input>
			<output>
				<port id="2" precision="FP32" names="390_1">
					<dim>1</dim>
					<dim>64</dim>
					<dim>96</dim>
					<dim>96</dim>
				</port>
			</output>
		</layer>
		<layer id="49" name="__module._model.backbone.layer1.1/aten::add_/Add" type="Add" version="opset1">
			<data auto_broadcast="numpy" />
			<input>
				<port id="0" precision="FP32">
					<dim>1</dim>
					<dim>64</dim>
					<dim>96</dim>
					<dim>96</dim>
				</port>
				<port id="1" precision="FP32">
					<dim>1</dim>
					<dim>64</dim>
					<dim>96</dim>
					<dim>96</dim>
				</port>
			</input>
			<output>
				<port id="2" precision="FP32" names="390_2">
					<dim>1</dim>
					<dim>64</dim>
					<dim>96</dim>
					<dim>96</dim>
				</port>
			</output>
		</layer>
		<layer id="50" name="__module._model.backbone.layer1.1.relu/aten::relu_/Relu_1" type="ReLU" version="opset1">
			<input>
				<port id="0" precision="FP32">
					<dim>1</dim>
					<dim>64</dim>
					<dim>96</dim>
					<dim>96</dim>
				</port>
			</input>
			<output>
				<port id="1" precision="FP32" names="391,input.25">
					<dim>1</dim>
					<dim>64</dim>
					<dim>96</dim>
					<dim>96</dim>
				</port>
			</output>
		</layer>
		<layer id="51" name="Multiply_65466_compressed" type="Const" version="opset1">
			<data element_type="f16" shape="128, 64, 3, 3" offset="314390" size="147456" />
			<output>
				<port id="0" precision="FP16">
					<dim>128</dim>
					<dim>64</dim>
					<dim>3</dim>
					<dim>3</dim>
				</port>
			</output>
		</layer>
		<layer id="52" name="Multiply_65466" type="Convert" version="opset1">
			<data destination_type="f32" />
			<rt_info>
				<attribute name="decompression" version="0" />
			</rt_info>
			<input>
				<port id="0" precision="FP16">
					<dim>128</dim>
					<dim>64</dim>
					<dim>3</dim>
					<dim>3</dim>
				</port>
			</input>
			<output>
				<port id="1" precision="FP32">
					<dim>128</dim>
					<dim>64</dim>
					<dim>3</dim>
					<dim>3</dim>
				</port>
			</output>
		</layer>
		<layer id="53" name="__module._model.backbone.layer2.0.bn1/aten::mul/Multiply_1" type="Convolution" version="opset1">
			<data strides="2, 2" dilations="1, 1" pads_begin="1, 1" pads_end="1, 1" auto_pad="explicit" />
			<input>
				<port id="0" precision="FP32">
					<dim>1</dim>
					<dim>64</dim>
					<dim>96</dim>
					<dim>96</dim>
				</port>
				<port id="1" precision="FP32">
					<dim>128</dim>
					<dim>64</dim>
					<dim>3</dim>
					<dim>3</dim>
				</port>
			</input>
			<output>
				<port id="2" precision="FP32" names="423">
					<dim>1</dim>
					<dim>128</dim>
					<dim>48</dim>
					<dim>48</dim>
				</port>
			</output>
		</layer>
		<layer id="54" name="__module._model.backbone.layer2.0.bn1/aten::add/Multiply_1_compressed" type="Const" version="opset1">
			<data element_type="f16" shape="1, 128, 1, 1" offset="461846" size="256" />
			<output>
				<port id="0" precision="FP16">
					<dim>1</dim>
					<dim>128</dim>
					<dim>1</dim>
					<dim>1</dim>
				</port>
			</output>
		</layer>
		<layer id="55" name="__module._model.backbone.layer2.0.bn1/aten::add/Multiply_1" type="Convert" version="opset1">
			<data destination_type="f32" />
			<rt_info>
				<attribute name="decompression" version="0" />
			</rt_info>
			<input>
				<port id="0" precision="FP16">
					<dim>1</dim>
					<dim>128</dim>
					<dim>1</dim>
					<dim>1</dim>
				</port>
			</input>
			<output>
				<port id="1" precision="FP32">
					<dim>1</dim>
					<dim>128</dim>
					<dim>1</dim>
					<dim>1</dim>
				</port>
			</output>
		</layer>
		<layer id="56" name="__module._model.backbone.layer2.0.bn1/aten::add/Add_1" type="Add" version="opset1">
			<data auto_broadcast="numpy" />
			<input>
				<port id="0" precision="FP32">
					<dim>1</dim>
					<dim>128</dim>
					<dim>48</dim>
					<dim>48</dim>
				</port>
				<port id="1" precision="FP32">
					<dim>1</dim>
					<dim>128</dim>
					<dim>1</dim>
					<dim>1</dim>
				</port>
			</input>
			<output>
				<port id="2" precision="FP32" names="424_1">
					<dim>1</dim>
					<dim>128</dim>
					<dim>48</dim>
					<dim>48</dim>
				</port>
			</output>
		</layer>
		<layer id="57" name="__module._model.backbone.layer2.0.relu/aten::relu_/Relu" type="ReLU" version="opset1">
			<input>
				<port id="0" precision="FP32">
					<dim>1</dim>
					<dim>128</dim>
					<dim>48</dim>
					<dim>48</dim>
				</port>
			</input>
			<output>
				<port id="1" precision="FP32" names="424,input.29">
					<dim>1</dim>
					<dim>128</dim>
					<dim>48</dim>
					<dim>48</dim>
				</port>
			</output>
		</layer>
		<layer id="58" name="Multiply_65470_compressed" type="Const" version="opset1">
			<data element_type="f16" shape="128, 128, 3, 3" offset="462102" size="294912" />
			<output>
				<port id="0" precision="FP16">
					<dim>128</dim>
					<dim>128</dim>
					<dim>3</dim>
					<dim>3</dim>
				</port>
			</output>
		</layer>
		<layer id="59" name="Multiply_65470" type="Convert" version="opset1">
			<data destination_type="f32" />
			<rt_info>
				<attribute name="decompression" version="0" />
			</rt_info>
			<input>
				<port id="0" precision="FP16">
					<dim>128</dim>
					<dim>128</dim>
					<dim>3</dim>
					<dim>3</dim>
				</port>
			</input>
			<output>
				<port id="1" precision="FP32">
					<dim>128</dim>
					<dim>128</dim>
					<dim>3</dim>
					<dim>3</dim>
				</port>
			</output>
		</layer>
		<layer id="60" name="__module._model.backbone.layer2.0.bn2/aten::mul/Multiply_1" type="Convolution" version="opset1">
			<data strides="1, 1" dilations="1, 1" pads_begin="1, 1" pads_end="1, 1" auto_pad="explicit" />
			<input>
				<port id="0" precision="FP32">
					<dim>1</dim>
					<dim>128</dim>
					<dim>48</dim>
					<dim>48</dim>
				</port>
				<port id="1" precision="FP32">
					<dim>128</dim>
					<dim>128</dim>
					<dim>3</dim>
					<dim>3</dim>
				</port>
			</input>
			<output>
				<port id="2" precision="FP32" names="449">
					<dim>1</dim>
					<dim>128</dim>
					<dim>48</dim>
					<dim>48</dim>
				</port>
			</output>
		</layer>
		<layer id="61" name="__module._model.backbone.layer2.0.bn2/aten::add/Multiply_1_compressed" type="Const" version="opset1">
			<data element_type="f16" shape="1, 128, 1, 1" offset="757014" size="256" />
			<output>
				<port id="0" precision="FP16">
					<dim>1</dim>
					<dim>128</dim>
					<dim>1</dim>
					<dim>1</dim>
				</port>
			</output>
		</layer>
		<layer id="62" name="__module._model.backbone.layer2.0.bn2/aten::add/Multiply_1" type="Convert" version="opset1">
			<data destination_type="f32" />
			<rt_info>
				<attribute name="decompression" version="0" />
			</rt_info>
			<input>
				<port id="0" precision="FP16">
					<dim>1</dim>
					<dim>128</dim>
					<dim>1</dim>
					<dim>1</dim>
				</port>
			</input>
			<output>
				<port id="1" precision="FP32">
					<dim>1</dim>
					<dim>128</dim>
					<dim>1</dim>
					<dim>1</dim>
				</port>
			</output>
		</layer>
		<layer id="63" name="__module._model.backbone.layer2.0.bn2/aten::add/Add_1" type="Add" version="opset1">
			<data auto_broadcast="numpy" />
			<input>
				<port id="0" precision="FP32">
					<dim>1</dim>
					<dim>128</dim>
					<dim>48</dim>
					<dim>48</dim>
				</port>
				<port id="1" precision="FP32">
					<dim>1</dim>
					<dim>128</dim>
					<dim>1</dim>
					<dim>1</dim>
				</port>
			</input>
			<output>
				<port id="2" precision="FP32" names="450_1">
					<dim>1</dim>
					<dim>128</dim>
					<dim>48</dim>
					<dim>48</dim>
				</port>
			</output>
		</layer>
		<layer id="64" name="Multiply_65474_compressed" type="Const" version="opset1">
			<data element_type="f16" shape="128, 64, 1, 1" offset="757270" size="16384" />
			<output>
				<port id="0" precision="FP16">
					<dim>128</dim>
					<dim>64</dim>
					<dim>1</dim>
					<dim>1</dim>
				</port>
			</output>
		</layer>
		<layer id="65" name="Multiply_65474" type="Convert" version="opset1">
			<data destination_type="f32" />
			<rt_info>
				<attribute name="decompression" version="0" />
			</rt_info>
			<input>
				<port id="0" precision="FP16">
					<dim>128</dim>
					<dim>64</dim>
					<dim>1</dim>
					<dim>1</dim>
				</port>
			</input>
			<output>
				<port id="1" precision="FP32">
					<dim>128</dim>
					<dim>64</dim>
					<dim>1</dim>
					<dim>1</dim>
				</port>
			</output>
		</layer>
		<layer id="66" name="__module._model.backbone.layer2.0.downsample.1/aten::mul/Multiply_1" type="Convolution" version="opset1">
			<data strides="2, 2" dilations="1, 1" pads_begin="0, 0" pads_end="0, 0" auto_pad="explicit" />
			<input>
				<port id="0" precision="FP32">
					<dim>1</dim>
					<dim>64</dim>
					<dim>96</dim>
					<dim>96</dim>
				</port>
				<port id="1" precision="FP32">
					<dim>128</dim>
					<dim>64</dim>
					<dim>1</dim>
					<dim>1</dim>
				</port>
			</input>
			<output>
				<port id="2" precision="FP32" names="476">
					<dim>1</dim>
					<dim>128</dim>
					<dim>48</dim>
					<dim>48</dim>
				</port>
			</output>
		</layer>
		<layer id="67" name="__module._model.backbone.layer2.0.downsample.1/aten::add/Multiply_1_compressed" type="Const" version="opset1">
			<data element_type="f16" shape="1, 128, 1, 1" offset="773654" size="256" />
			<output>
				<port id="0" precision="FP16">
					<dim>1</dim>
					<dim>128</dim>
					<dim>1</dim>
					<dim>1</dim>
				</port>
			</output>
		</layer>
		<layer id="68" name="__module._model.backbone.layer2.0.downsample.1/aten::add/Multiply_1" type="Convert" version="opset1">
			<data destination_type="f32" />
			<rt_info>
				<attribute name="decompression" version="0" />
			</rt_info>
			<input>
				<port id="0" precision="FP16">
					<dim>1</dim>
					<dim>128</dim>
					<dim>1</dim>
					<dim>1</dim>
				</port>
			</input>
			<output>
				<port id="1" precision="FP32">
					<dim>1</dim>
					<dim>128</dim>
					<dim>1</dim>
					<dim>1</dim>
				</port>
			</output>
		</layer>
		<layer id="69" name="__module._model.backbone.layer2.0.downsample.1/aten::add/Add_1" type="Add" version="opset1">
			<data auto_broadcast="numpy" />
			<input>
				<port id="0" precision="FP32">
					<dim>1</dim>
					<dim>128</dim>
					<dim>48</dim>
					<dim>48</dim>
				</port>
				<port id="1" precision="FP32">
					<dim>1</dim>
					<dim>128</dim>
					<dim>1</dim>
					<dim>1</dim>
				</port>
			</input>
			<output>
				<port id="2" precision="FP32" names="477,identity.1">
					<dim>1</dim>
					<dim>128</dim>
					<dim>48</dim>
					<dim>48</dim>
				</port>
			</output>
		</layer>
		<layer id="70" name="__module._model.backbone.layer2.0/aten::add_/Add" type="Add" version="opset1">
			<data auto_broadcast="numpy" />
			<input>
				<port id="0" precision="FP32">
					<dim>1</dim>
					<dim>128</dim>
					<dim>48</dim>
					<dim>48</dim>
				</port>
				<port id="1" precision="FP32">
					<dim>1</dim>
					<dim>128</dim>
					<dim>48</dim>
					<dim>48</dim>
				</port>
			</input>
			<output>
				<port id="2" precision="FP32" names="450_2">
					<dim>1</dim>
					<dim>128</dim>
					<dim>48</dim>
					<dim>48</dim>
				</port>
			</output>
		</layer>
		<layer id="71" name="__module._model.backbone.layer2.0.relu/aten::relu_/Relu_1" type="ReLU" version="opset1">
			<input>
				<port id="0" precision="FP32">
					<dim>1</dim>
					<dim>128</dim>
					<dim>48</dim>
					<dim>48</dim>
				</port>
			</input>
			<output>
				<port id="1" precision="FP32" names="478,input.33">
					<dim>1</dim>
					<dim>128</dim>
					<dim>48</dim>
					<dim>48</dim>
				</port>
			</output>
		</layer>
		<layer id="72" name="Multiply_65478_compressed" type="Const" version="opset1">
			<data element_type="f16" shape="128, 128, 3, 3" offset="773910" size="294912" />
			<output>
				<port id="0" precision="FP16">
					<dim>128</dim>
					<dim>128</dim>
					<dim>3</dim>
					<dim>3</dim>
				</port>
			</output>
		</layer>
		<layer id="73" name="Multiply_65478" type="Convert" version="opset1">
			<data destination_type="f32" />
			<rt_info>
				<attribute name="decompression" version="0" />
			</rt_info>
			<input>
				<port id="0" precision="FP16">
					<dim>128</dim>
					<dim>128</dim>
					<dim>3</dim>
					<dim>3</dim>
				</port>
			</input>
			<output>
				<port id="1" precision="FP32">
					<dim>128</dim>
					<dim>128</dim>
					<dim>3</dim>
					<dim>3</dim>
				</port>
			</output>
		</layer>
		<layer id="74" name="__module._model.backbone.layer2.1.bn1/aten::mul/Multiply_1" type="Convolution" version="opset1">
			<data strides="1, 1" dilations="1, 1" pads_begin="1, 1" pads_end="1, 1" auto_pad="explicit" />
			<input>
				<port id="0" precision="FP32">
					<dim>1</dim>
					<dim>128</dim>
					<dim>48</dim>
					<dim>48</dim>
				</port>
				<port id="1" precision="FP32">
					<dim>128</dim>
					<dim>128</dim>
					<dim>3</dim>
					<dim>3</dim>
				</port>
			</input>
			<output>
				<port id="2" precision="FP32" names="507">
					<dim>1</dim>
					<dim>128</dim>
					<dim>48</dim>
					<dim>48</dim>
				</port>
			</output>
		</layer>
		<layer id="75" name="__module._model.backbone.layer2.1.bn1/aten::add/Multiply_1_compressed" type="Const" version="opset1">
			<data element_type="f16" shape="1, 128, 1, 1" offset="1068822" size="256" />
			<output>
				<port id="0" precision="FP16">
					<dim>1</dim>
					<dim>128</dim>
					<dim>1</dim>
					<dim>1</dim>
				</port>
			</output>
		</layer>
		<layer id="76" name="__module._model.backbone.layer2.1.bn1/aten::add/Multiply_1" type="Convert" version="opset1">
			<data destination_type="f32" />
			<rt_info>
				<attribute name="decompression" version="0" />
			</rt_info>
			<input>
				<port id="0" precision="FP16">
					<dim>1</dim>
					<dim>128</dim>
					<dim>1</dim>
					<dim>1</dim>
				</port>
			</input>
			<output>
				<port id="1" precision="FP32">
					<dim>1</dim>
					<dim>128</dim>
					<dim>1</dim>
					<dim>1</dim>
				</port>
			</output>
		</layer>
		<layer id="77" name="__module._model.backbone.layer2.1.bn1/aten::add/Add_1" type="Add" version="opset1">
			<data auto_broadcast="numpy" />
			<input>
				<port id="0" precision="FP32">
					<dim>1</dim>
					<dim>128</dim>
					<dim>48</dim>
					<dim>48</dim>
				</port>
				<port id="1" precision="FP32">
					<dim>1</dim>
					<dim>128</dim>
					<dim>1</dim>
					<dim>1</dim>
				</port>
			</input>
			<output>
				<port id="2" precision="FP32" names="508_1">
					<dim>1</dim>
					<dim>128</dim>
					<dim>48</dim>
					<dim>48</dim>
				</port>
			</output>
		</layer>
		<layer id="78" name="__module._model.backbone.layer2.1.relu/aten::relu_/Relu" type="ReLU" version="opset1">
			<input>
				<port id="0" precision="FP32">
					<dim>1</dim>
					<dim>128</dim>
					<dim>48</dim>
					<dim>48</dim>
				</port>
			</input>
			<output>
				<port id="1" precision="FP32" names="508,input.37">
					<dim>1</dim>
					<dim>128</dim>
					<dim>48</dim>
					<dim>48</dim>
				</port>
			</output>
		</layer>
		<layer id="79" name="Multiply_65482_compressed" type="Const" version="opset1">
			<data element_type="f16" shape="128, 128, 3, 3" offset="1069078" size="294912" />
			<output>
				<port id="0" precision="FP16">
					<dim>128</dim>
					<dim>128</dim>
					<dim>3</dim>
					<dim>3</dim>
				</port>
			</output>
		</layer>
		<layer id="80" name="Multiply_65482" type="Convert" version="opset1">
			<data destination_type="f32" />
			<rt_info>
				<attribute name="decompression" version="0" />
			</rt_info>
			<input>
				<port id="0" precision="FP16">
					<dim>128</dim>
					<dim>128</dim>
					<dim>3</dim>
					<dim>3</dim>
				</port>
			</input>
			<output>
				<port id="1" precision="FP32">
					<dim>128</dim>
					<dim>128</dim>
					<dim>3</dim>
					<dim>3</dim>
				</port>
			</output>
		</layer>
		<layer id="81" name="__module._model.backbone.layer2.1.bn2/aten::mul/Multiply_1" type="Convolution" version="opset1">
			<data strides="1, 1" dilations="1, 1" pads_begin="1, 1" pads_end="1, 1" auto_pad="explicit" />
			<input>
				<port id="0" precision="FP32">
					<dim>1</dim>
					<dim>128</dim>
					<dim>48</dim>
					<dim>48</dim>
				</port>
				<port id="1" precision="FP32">
					<dim>128</dim>
					<dim>128</dim>
					<dim>3</dim>
					<dim>3</dim>
				</port>
			</input>
			<output>
				<port id="2" precision="FP32" names="533">
					<dim>1</dim>
					<dim>128</dim>
					<dim>48</dim>
					<dim>48</dim>
				</port>
			</output>
		</layer>
		<layer id="82" name="__module._model.backbone.layer2.1.bn2/aten::add/Multiply_1_compressed" type="Const" version="opset1">
			<data element_type="f16" shape="1, 128, 1, 1" offset="1363990" size="256" />
			<output>
				<port id="0" precision="FP16">
					<dim>1</dim>
					<dim>128</dim>
					<dim>1</dim>
					<dim>1</dim>
				</port>
			</output>
		</layer>
		<layer id="83" name="__module._model.backbone.layer2.1.bn2/aten::add/Multiply_1" type="Convert" version="opset1">
			<data destination_type="f32" />
			<rt_info>
				<attribute name="decompression" version="0" />
			</rt_info>
			<input>
				<port id="0" precision="FP16">
					<dim>1</dim>
					<dim>128</dim>
					<dim>1</dim>
					<dim>1</dim>
				</port>
			</input>
			<output>
				<port id="1" precision="FP32">
					<dim>1</dim>
					<dim>128</dim>
					<dim>1</dim>
					<dim>1</dim>
				</port>
			</output>
		</layer>
		<layer id="84" name="__module._model.backbone.layer2.1.bn2/aten::add/Add_1" type="Add" version="opset1">
			<data auto_broadcast="numpy" />
			<input>
				<port id="0" precision="FP32">
					<dim>1</dim>
					<dim>128</dim>
					<dim>48</dim>
					<dim>48</dim>
				</port>
				<port id="1" precision="FP32">
					<dim>1</dim>
					<dim>128</dim>
					<dim>1</dim>
					<dim>1</dim>
				</port>
			</input>
			<output>
				<port id="2" precision="FP32" names="534_1">
					<dim>1</dim>
					<dim>128</dim>
					<dim>48</dim>
					<dim>48</dim>
				</port>
			</output>
		</layer>
		<layer id="85" name="__module._model.backbone.layer2.1/aten::add_/Add" type="Add" version="opset1">
			<data auto_broadcast="numpy" />
			<input>
				<port id="0" precision="FP32">
					<dim>1</dim>
					<dim>128</dim>
					<dim>48</dim>
					<dim>48</dim>
				</port>
				<port id="1" precision="FP32">
					<dim>1</dim>
					<dim>128</dim>
					<dim>48</dim>
					<dim>48</dim>
				</port>
			</input>
			<output>
				<port id="2" precision="FP32" names="534_2">
					<dim>1</dim>
					<dim>128</dim>
					<dim>48</dim>
					<dim>48</dim>
				</port>
			</output>
		</layer>
		<layer id="86" name="__module._model.backbone.layer2.1.relu/aten::relu_/Relu_1" type="ReLU" version="opset1">
			<input>
				<port id="0" precision="FP32">
					<dim>1</dim>
					<dim>128</dim>
					<dim>48</dim>
					<dim>48</dim>
				</port>
			</input>
			<output>
				<port id="1" precision="FP32" names="535,input.41">
					<dim>1</dim>
					<dim>128</dim>
					<dim>48</dim>
					<dim>48</dim>
				</port>
			</output>
		</layer>
		<layer id="87" name="Multiply_65486_compressed" type="Const" version="opset1">
			<data element_type="f16" shape="256, 128, 3, 3" offset="1364246" size="589824" />
			<output>
				<port id="0" precision="FP16">
					<dim>256</dim>
					<dim>128</dim>
					<dim>3</dim>
					<dim>3</dim>
				</port>
			</output>
		</layer>
		<layer id="88" name="Multiply_65486" type="Convert" version="opset1">
			<data destination_type="f32" />
			<rt_info>
				<attribute name="decompression" version="0" />
			</rt_info>
			<input>
				<port id="0" precision="FP16">
					<dim>256</dim>
					<dim>128</dim>
					<dim>3</dim>
					<dim>3</dim>
				</port>
			</input>
			<output>
				<port id="1" precision="FP32">
					<dim>256</dim>
					<dim>128</dim>
					<dim>3</dim>
					<dim>3</dim>
				</port>
			</output>
		</layer>
		<layer id="89" name="__module._model.backbone.layer3.0.bn1/aten::mul/Multiply_1" type="Convolution" version="opset1">
			<data strides="2, 2" dilations="1, 1" pads_begin="1, 1" pads_end="1, 1" auto_pad="explicit" />
			<input>
				<port id="0" precision="FP32">
					<dim>1</dim>
					<dim>128</dim>
					<dim>48</dim>
					<dim>48</dim>
				</port>
				<port id="1" precision="FP32">
					<dim>256</dim>
					<dim>128</dim>
					<dim>3</dim>
					<dim>3</dim>
				</port>
			</input>
			<output>
				<port id="2" precision="FP32" names="567">
					<dim>1</dim>
					<dim>256</dim>
					<dim>24</dim>
					<dim>24</dim>
				</port>
			</output>
		</layer>
		<layer id="90" name="__module._model.backbone.layer3.0.bn1/aten::add/Multiply_1_compressed" type="Const" version="opset1">
			<data element_type="f16" shape="1, 256, 1, 1" offset="1954070" size="512" />
			<output>
				<port id="0" precision="FP16">
					<dim>1</dim>
					<dim>256</dim>
					<dim>1</dim>
					<dim>1</dim>
				</port>
			</output>
		</layer>
		<layer id="91" name="__module._model.backbone.layer3.0.bn1/aten::add/Multiply_1" type="Convert" version="opset1">
			<data destination_type="f32" />
			<rt_info>
				<attribute name="decompression" version="0" />
			</rt_info>
			<input>
				<port id="0" precision="FP16">
					<dim>1</dim>
					<dim>256</dim>
					<dim>1</dim>
					<dim>1</dim>
				</port>
			</input>
			<output>
				<port id="1" precision="FP32">
					<dim>1</dim>
					<dim>256</dim>
					<dim>1</dim>
					<dim>1</dim>
				</port>
			</output>
		</layer>
		<layer id="92" name="__module._model.backbone.layer3.0.bn1/aten::add/Add_1" type="Add" version="opset1">
			<data auto_broadcast="numpy" />
			<input>
				<port id="0" precision="FP32">
					<dim>1</dim>
					<dim>256</dim>
					<dim>24</dim>
					<dim>24</dim>
				</port>
				<port id="1" precision="FP32">
					<dim>1</dim>
					<dim>256</dim>
					<dim>1</dim>
					<dim>1</dim>
				</port>
			</input>
			<output>
				<port id="2" precision="FP32" names="568_1">
					<dim>1</dim>
					<dim>256</dim>
					<dim>24</dim>
					<dim>24</dim>
				</port>
			</output>
		</layer>
		<layer id="93" name="__module._model.backbone.layer3.0.relu/aten::relu_/Relu" type="ReLU" version="opset1">
			<input>
				<port id="0" precision="FP32">
					<dim>1</dim>
					<dim>256</dim>
					<dim>24</dim>
					<dim>24</dim>
				</port>
			</input>
			<output>
				<port id="1" precision="FP32" names="568,input.45">
					<dim>1</dim>
					<dim>256</dim>
					<dim>24</dim>
					<dim>24</dim>
				</port>
			</output>
		</layer>
		<layer id="94" name="Multiply_65490_compressed" type="Const" version="opset1">
			<data element_type="f16" shape="256, 256, 3, 3" offset="1954582" size="1179648" />
			<output>
				<port id="0" precision="FP16">
					<dim>256</dim>
					<dim>256</dim>
					<dim>3</dim>
					<dim>3</dim>
				</port>
			</output>
		</layer>
		<layer id="95" name="Multiply_65490" type="Convert" version="opset1">
			<data destination_type="f32" />
			<rt_info>
				<attribute name="decompression" version="0" />
			</rt_info>
			<input>
				<port id="0" precision="FP16">
					<dim>256</dim>
					<dim>256</dim>
					<dim>3</dim>
					<dim>3</dim>
				</port>
			</input>
			<output>
				<port id="1" precision="FP32">
					<dim>256</dim>
					<dim>256</dim>
					<dim>3</dim>
					<dim>3</dim>
				</port>
			</output>
		</layer>
		<layer id="96" name="__module._model.backbone.layer3.0.bn2/aten::mul/Multiply_1" type="Convolution" version="opset1">
			<data strides="1, 1" dilations="1, 1" pads_begin="1, 1" pads_end="1, 1" auto_pad="explicit" />
			<input>
				<port id="0" precision="FP32">
					<dim>1</dim>
					<dim>256</dim>
					<dim>24</dim>
					<dim>24</dim>
				</port>
				<port id="1" precision="FP32">
					<dim>256</dim>
					<dim>256</dim>
					<dim>3</dim>
					<dim>3</dim>
				</port>
			</input>
			<output>
				<port id="2" precision="FP32" names="593">
					<dim>1</dim>
					<dim>256</dim>
					<dim>24</dim>
					<dim>24</dim>
				</port>
			</output>
		</layer>
		<layer id="97" name="__module._model.backbone.layer3.0.bn2/aten::add/Multiply_1_compressed" type="Const" version="opset1">
			<data element_type="f16" shape="1, 256, 1, 1" offset="3134230" size="512" />
			<output>
				<port id="0" precision="FP16">
					<dim>1</dim>
					<dim>256</dim>
					<dim>1</dim>
					<dim>1</dim>
				</port>
			</output>
		</layer>
		<layer id="98" name="__module._model.backbone.layer3.0.bn2/aten::add/Multiply_1" type="Convert" version="opset1">
			<data destination_type="f32" />
			<rt_info>
				<attribute name="decompression" version="0" />
			</rt_info>
			<input>
				<port id="0" precision="FP16">
					<dim>1</dim>
					<dim>256</dim>
					<dim>1</dim>
					<dim>1</dim>
				</port>
			</input>
			<output>
				<port id="1" precision="FP32">
					<dim>1</dim>
					<dim>256</dim>
					<dim>1</dim>
					<dim>1</dim>
				</port>
			</output>
		</layer>
		<layer id="99" name="__module._model.backbone.layer3.0.bn2/aten::add/Add_1" type="Add" version="opset1">
			<data auto_broadcast="numpy" />
			<input>
				<port id="0" precision="FP32">
					<dim>1</dim>
					<dim>256</dim>
					<dim>24</dim>
					<dim>24</dim>
				</port>
				<port id="1" precision="FP32">
					<dim>1</dim>
					<dim>256</dim>
					<dim>1</dim>
					<dim>1</dim>
				</port>
			</input>
			<output>
				<port id="2" precision="FP32" names="594_1">
					<dim>1</dim>
					<dim>256</dim>
					<dim>24</dim>
					<dim>24</dim>
				</port>
			</output>
		</layer>
		<layer id="100" name="Multiply_65494_compressed" type="Const" version="opset1">
			<data element_type="f16" shape="256, 128, 1, 1" offset="3134742" size="65536" />
			<output>
				<port id="0" precision="FP16">
					<dim>256</dim>
					<dim>128</dim>
					<dim>1</dim>
					<dim>1</dim>
				</port>
			</output>
		</layer>
		<layer id="101" name="Multiply_65494" type="Convert" version="opset1">
			<data destination_type="f32" />
			<rt_info>
				<attribute name="decompression" version="0" />
			</rt_info>
			<input>
				<port id="0" precision="FP16">
					<dim>256</dim>
					<dim>128</dim>
					<dim>1</dim>
					<dim>1</dim>
				</port>
			</input>
			<output>
				<port id="1" precision="FP32">
					<dim>256</dim>
					<dim>128</dim>
					<dim>1</dim>
					<dim>1</dim>
				</port>
			</output>
		</layer>
		<layer id="102" name="__module._model.backbone.layer3.0.downsample.1/aten::mul/Multiply_1" type="Convolution" version="opset1">
			<data strides="2, 2" dilations="1, 1" pads_begin="0, 0" pads_end="0, 0" auto_pad="explicit" />
			<input>
				<port id="0" precision="FP32">
					<dim>1</dim>
					<dim>128</dim>
					<dim>48</dim>
					<dim>48</dim>
				</port>
				<port id="1" precision="FP32">
					<dim>256</dim>
					<dim>128</dim>
					<dim>1</dim>
					<dim>1</dim>
				</port>
			</input>
			<output>
				<port id="2" precision="FP32" names="620">
					<dim>1</dim>
					<dim>256</dim>
					<dim>24</dim>
					<dim>24</dim>
				</port>
			</output>
		</layer>
		<layer id="103" name="__module._model.backbone.layer3.0.downsample.1/aten::add/Multiply_1_compressed" type="Const" version="opset1">
			<data element_type="f16" shape="1, 256, 1, 1" offset="3200278" size="512" />
			<output>
				<port id="0" precision="FP16">
					<dim>1</dim>
					<dim>256</dim>
					<dim>1</dim>
					<dim>1</dim>
				</port>
			</output>
		</layer>
		<layer id="104" name="__module._model.backbone.layer3.0.downsample.1/aten::add/Multiply_1" type="Convert" version="opset1">
			<data destination_type="f32" />
			<rt_info>
				<attribute name="decompression" version="0" />
			</rt_info>
			<input>
				<port id="0" precision="FP16">
					<dim>1</dim>
					<dim>256</dim>
					<dim>1</dim>
					<dim>1</dim>
				</port>
			</input>
			<output>
				<port id="1" precision="FP32">
					<dim>1</dim>
					<dim>256</dim>
					<dim>1</dim>
					<dim>1</dim>
				</port>
			</output>
		</layer>
		<layer id="105" name="__module._model.backbone.layer3.0.downsample.1/aten::add/Add_1" type="Add" version="opset1">
			<data auto_broadcast="numpy" />
			<input>
				<port id="0" precision="FP32">
					<dim>1</dim>
					<dim>256</dim>
					<dim>24</dim>
					<dim>24</dim>
				</port>
				<port id="1" precision="FP32">
					<dim>1</dim>
					<dim>256</dim>
					<dim>1</dim>
					<dim>1</dim>
				</port>
			</input>
			<output>
				<port id="2" precision="FP32" names="621,identity.3">
					<dim>1</dim>
					<dim>256</dim>
					<dim>24</dim>
					<dim>24</dim>
				</port>
			</output>
		</layer>
		<layer id="106" name="__module._model.backbone.layer3.0/aten::add_/Add" type="Add" version="opset1">
			<data auto_broadcast="numpy" />
			<input>
				<port id="0" precision="FP32">
					<dim>1</dim>
					<dim>256</dim>
					<dim>24</dim>
					<dim>24</dim>
				</port>
				<port id="1" precision="FP32">
					<dim>1</dim>
					<dim>256</dim>
					<dim>24</dim>
					<dim>24</dim>
				</port>
			</input>
			<output>
				<port id="2" precision="FP32" names="594_2">
					<dim>1</dim>
					<dim>256</dim>
					<dim>24</dim>
					<dim>24</dim>
				</port>
			</output>
		</layer>
		<layer id="107" name="__module._model.backbone.layer3.0.relu/aten::relu_/Relu_1" type="ReLU" version="opset1">
			<input>
				<port id="0" precision="FP32">
					<dim>1</dim>
					<dim>256</dim>
					<dim>24</dim>
					<dim>24</dim>
				</port>
			</input>
			<output>
				<port id="1" precision="FP32" names="622,input.49">
					<dim>1</dim>
					<dim>256</dim>
					<dim>24</dim>
					<dim>24</dim>
				</port>
			</output>
		</layer>
		<layer id="108" name="Multiply_65498_compressed" type="Const" version="opset1">
			<data element_type="f16" shape="256, 256, 3, 3" offset="3200790" size="1179648" />
			<output>
				<port id="0" precision="FP16">
					<dim>256</dim>
					<dim>256</dim>
					<dim>3</dim>
					<dim>3</dim>
				</port>
			</output>
		</layer>
		<layer id="109" name="Multiply_65498" type="Convert" version="opset1">
			<data destination_type="f32" />
			<rt_info>
				<attribute name="decompression" version="0" />
			</rt_info>
			<input>
				<port id="0" precision="FP16">
					<dim>256</dim>
					<dim>256</dim>
					<dim>3</dim>
					<dim>3</dim>
				</port>
			</input>
			<output>
				<port id="1" precision="FP32">
					<dim>256</dim>
					<dim>256</dim>
					<dim>3</dim>
					<dim>3</dim>
				</port>
			</output>
		</layer>
		<layer id="110" name="__module._model.backbone.layer3.1.bn1/aten::mul/Multiply_1" type="Convolution" version="opset1">
			<data strides="1, 1" dilations="1, 1" pads_begin="1, 1" pads_end="1, 1" auto_pad="explicit" />
			<input>
				<port id="0" precision="FP32">
					<dim>1</dim>
					<dim>256</dim>
					<dim>24</dim>
					<dim>24</dim>
				</port>
				<port id="1" precision="FP32">
					<dim>256</dim>
					<dim>256</dim>
					<dim>3</dim>
					<dim>3</dim>
				</port>
			</input>
			<output>
				<port id="2" precision="FP32" names="651">
					<dim>1</dim>
					<dim>256</dim>
					<dim>24</dim>
					<dim>24</dim>
				</port>
			</output>
		</layer>
		<layer id="111" name="__module._model.backbone.layer3.1.bn1/aten::add/Multiply_1_compressed" type="Const" version="opset1">
			<data element_type="f16" shape="1, 256, 1, 1" offset="4380438" size="512" />
			<output>
				<port id="0" precision="FP16">
					<dim>1</dim>
					<dim>256</dim>
					<dim>1</dim>
					<dim>1</dim>
				</port>
			</output>
		</layer>
		<layer id="112" name="__module._model.backbone.layer3.1.bn1/aten::add/Multiply_1" type="Convert" version="opset1">
			<data destination_type="f32" />
			<rt_info>
				<attribute name="decompression" version="0" />
			</rt_info>
			<input>
				<port id="0" precision="FP16">
					<dim>1</dim>
					<dim>256</dim>
					<dim>1</dim>
					<dim>1</dim>
				</port>
			</input>
			<output>
				<port id="1" precision="FP32">
					<dim>1</dim>
					<dim>256</dim>
					<dim>1</dim>
					<dim>1</dim>
				</port>
			</output>
		</layer>
		<layer id="113" name="__module._model.backbone.layer3.1.bn1/aten::add/Add_1" type="Add" version="opset1">
			<data auto_broadcast="numpy" />
			<input>
				<port id="0" precision="FP32">
					<dim>1</dim>
					<dim>256</dim>
					<dim>24</dim>
					<dim>24</dim>
				</port>
				<port id="1" precision="FP32">
					<dim>1</dim>
					<dim>256</dim>
					<dim>1</dim>
					<dim>1</dim>
				</port>
			</input>
			<output>
				<port id="2" precision="FP32" names="652_1">
					<dim>1</dim>
					<dim>256</dim>
					<dim>24</dim>
					<dim>24</dim>
				</port>
			</output>
		</layer>
		<layer id="114" name="__module._model.backbone.layer3.1.relu/aten::relu_/Relu" type="ReLU" version="opset1">
			<input>
				<port id="0" precision="FP32">
					<dim>1</dim>
					<dim>256</dim>
					<dim>24</dim>
					<dim>24</dim>
				</port>
			</input>
			<output>
				<port id="1" precision="FP32" names="652,input.53">
					<dim>1</dim>
					<dim>256</dim>
					<dim>24</dim>
					<dim>24</dim>
				</port>
			</output>
		</layer>
		<layer id="115" name="Multiply_65502_compressed" type="Const" version="opset1">
			<data element_type="f16" shape="256, 256, 3, 3" offset="4380950" size="1179648" />
			<output>
				<port id="0" precision="FP16">
					<dim>256</dim>
					<dim>256</dim>
					<dim>3</dim>
					<dim>3</dim>
				</port>
			</output>
		</layer>
		<layer id="116" name="Multiply_65502" type="Convert" version="opset1">
			<data destination_type="f32" />
			<rt_info>
				<attribute name="decompression" version="0" />
			</rt_info>
			<input>
				<port id="0" precision="FP16">
					<dim>256</dim>
					<dim>256</dim>
					<dim>3</dim>
					<dim>3</dim>
				</port>
			</input>
			<output>
				<port id="1" precision="FP32">
					<dim>256</dim>
					<dim>256</dim>
					<dim>3</dim>
					<dim>3</dim>
				</port>
			</output>
		</layer>
		<layer id="117" name="__module._model.backbone.layer3.1.bn2/aten::mul/Multiply_1" type="Convolution" version="opset1">
			<data strides="1, 1" dilations="1, 1" pads_begin="1, 1" pads_end="1, 1" auto_pad="explicit" />
			<input>
				<port id="0" precision="FP32">
					<dim>1</dim>
					<dim>256</dim>
					<dim>24</dim>
					<dim>24</dim>
				</port>
				<port id="1" precision="FP32">
					<dim>256</dim>
					<dim>256</dim>
					<dim>3</dim>
					<dim>3</dim>
				</port>
			</input>
			<output>
				<port id="2" precision="FP32" names="677">
					<dim>1</dim>
					<dim>256</dim>
					<dim>24</dim>
					<dim>24</dim>
				</port>
			</output>
		</layer>
		<layer id="118" name="__module._model.backbone.layer3.1.bn2/aten::add/Multiply_1_compressed" type="Const" version="opset1">
			<data element_type="f16" shape="1, 256, 1, 1" offset="5560598" size="512" />
			<output>
				<port id="0" precision="FP16">
					<dim>1</dim>
					<dim>256</dim>
					<dim>1</dim>
					<dim>1</dim>
				</port>
			</output>
		</layer>
		<layer id="119" name="__module._model.backbone.layer3.1.bn2/aten::add/Multiply_1" type="Convert" version="opset1">
			<data destination_type="f32" />
			<rt_info>
				<attribute name="decompression" version="0" />
			</rt_info>
			<input>
				<port id="0" precision="FP16">
					<dim>1</dim>
					<dim>256</dim>
					<dim>1</dim>
					<dim>1</dim>
				</port>
			</input>
			<output>
				<port id="1" precision="FP32">
					<dim>1</dim>
					<dim>256</dim>
					<dim>1</dim>
					<dim>1</dim>
				</port>
			</output>
		</layer>
		<layer id="120" name="__module._model.backbone.layer3.1.bn2/aten::add/Add_1" type="Add" version="opset1">
			<data auto_broadcast="numpy" />
			<input>
				<port id="0" precision="FP32">
					<dim>1</dim>
					<dim>256</dim>
					<dim>24</dim>
					<dim>24</dim>
				</port>
				<port id="1" precision="FP32">
					<dim>1</dim>
					<dim>256</dim>
					<dim>1</dim>
					<dim>1</dim>
				</port>
			</input>
			<output>
				<port id="2" precision="FP32" names="678_1">
					<dim>1</dim>
					<dim>256</dim>
					<dim>24</dim>
					<dim>24</dim>
				</port>
			</output>
		</layer>
		<layer id="121" name="__module._model.backbone.layer3.1/aten::add_/Add" type="Add" version="opset1">
			<data auto_broadcast="numpy" />
			<input>
				<port id="0" precision="FP32">
					<dim>1</dim>
					<dim>256</dim>
					<dim>24</dim>
					<dim>24</dim>
				</port>
				<port id="1" precision="FP32">
					<dim>1</dim>
					<dim>256</dim>
					<dim>24</dim>
					<dim>24</dim>
				</port>
			</input>
			<output>
				<port id="2" precision="FP32" names="678_2">
					<dim>1</dim>
					<dim>256</dim>
					<dim>24</dim>
					<dim>24</dim>
				</port>
			</output>
		</layer>
		<layer id="122" name="__module._model.backbone.layer3.1.relu/aten::relu_/Relu_1" type="ReLU" version="opset1">
			<input>
				<port id="0" precision="FP32">
					<dim>1</dim>
					<dim>256</dim>
					<dim>24</dim>
					<dim>24</dim>
				</port>
			</input>
			<output>
				<port id="1" precision="FP32" names="679,input.57">
					<dim>1</dim>
					<dim>256</dim>
					<dim>24</dim>
					<dim>24</dim>
				</port>
			</output>
		</layer>
		<layer id="123" name="Multiply_65506_compressed" type="Const" version="opset1">
			<data element_type="f16" shape="512, 256, 3, 3" offset="5561110" size="2359296" />
			<output>
				<port id="0" precision="FP16">
					<dim>512</dim>
					<dim>256</dim>
					<dim>3</dim>
					<dim>3</dim>
				</port>
			</output>
		</layer>
		<layer id="124" name="Multiply_65506" type="Convert" version="opset1">
			<data destination_type="f32" />
			<rt_info>
				<attribute name="decompression" version="0" />
			</rt_info>
			<input>
				<port id="0" precision="FP16">
					<dim>512</dim>
					<dim>256</dim>
					<dim>3</dim>
					<dim>3</dim>
				</port>
			</input>
			<output>
				<port id="1" precision="FP32">
					<dim>512</dim>
					<dim>256</dim>
					<dim>3</dim>
					<dim>3</dim>
				</port>
			</output>
		</layer>
		<layer id="125" name="__module._model.backbone.layer4.0.bn1/aten::mul/Multiply_1" type="Convolution" version="opset1">
			<data strides="2, 2" dilations="1, 1" pads_begin="1, 1" pads_end="1, 1" auto_pad="explicit" />
			<input>
				<port id="0" precision="FP32">
					<dim>1</dim>
					<dim>256</dim>
					<dim>24</dim>
					<dim>24</dim>
				</port>
				<port id="1" precision="FP32">
					<dim>512</dim>
					<dim>256</dim>
					<dim>3</dim>
					<dim>3</dim>
				</port>
			</input>
			<output>
				<port id="2" precision="FP32" names="711">
					<dim>1</dim>
					<dim>512</dim>
					<dim>12</dim>
					<dim>12</dim>
				</port>
			</output>
		</layer>
		<layer id="126" name="__module._model.backbone.layer4.0.bn1/aten::add/Multiply_1_compressed" type="Const" version="opset1">
			<data element_type="f16" shape="1, 512, 1, 1" offset="7920406" size="1024" />
			<output>
				<port id="0" precision="FP16">
					<dim>1</dim>
					<dim>512</dim>
					<dim>1</dim>
					<dim>1</dim>
				</port>
			</output>
		</layer>
		<layer id="127" name="__module._model.backbone.layer4.0.bn1/aten::add/Multiply_1" type="Convert" version="opset1">
			<data destination_type="f32" />
			<rt_info>
				<attribute name="decompression" version="0" />
			</rt_info>
			<input>
				<port id="0" precision="FP16">
					<dim>1</dim>
					<dim>512</dim>
					<dim>1</dim>
					<dim>1</dim>
				</port>
			</input>
			<output>
				<port id="1" precision="FP32">
					<dim>1</dim>
					<dim>512</dim>
					<dim>1</dim>
					<dim>1</dim>
				</port>
			</output>
		</layer>
		<layer id="128" name="__module._model.backbone.layer4.0.bn1/aten::add/Add_1" type="Add" version="opset1">
			<data auto_broadcast="numpy" />
			<input>
				<port id="0" precision="FP32">
					<dim>1</dim>
					<dim>512</dim>
					<dim>12</dim>
					<dim>12</dim>
				</port>
				<port id="1" precision="FP32">
					<dim>1</dim>
					<dim>512</dim>
					<dim>1</dim>
					<dim>1</dim>
				</port>
			</input>
			<output>
				<port id="2" precision="FP32" names="712_1">
					<dim>1</dim>
					<dim>512</dim>
					<dim>12</dim>
					<dim>12</dim>
				</port>
			</output>
		</layer>
		<layer id="129" name="__module._model.backbone.layer4.0.relu/aten::relu_/Relu" type="ReLU" version="opset1">
			<input>
				<port id="0" precision="FP32">
					<dim>1</dim>
					<dim>512</dim>
					<dim>12</dim>
					<dim>12</dim>
				</port>
			</input>
			<output>
				<port id="1" precision="FP32" names="712,input.61">
					<dim>1</dim>
					<dim>512</dim>
					<dim>12</dim>
					<dim>12</dim>
				</port>
			</output>
		</layer>
		<layer id="130" name="Multiply_65510_compressed" type="Const" version="opset1">
			<data element_type="f16" shape="512, 512, 3, 3" offset="7921430" size="4718592" />
			<output>
				<port id="0" precision="FP16">
					<dim>512</dim>
					<dim>512</dim>
					<dim>3</dim>
					<dim>3</dim>
				</port>
			</output>
		</layer>
		<layer id="131" name="Multiply_65510" type="Convert" version="opset1">
			<data destination_type="f32" />
			<rt_info>
				<attribute name="decompression" version="0" />
			</rt_info>
			<input>
				<port id="0" precision="FP16">
					<dim>512</dim>
					<dim>512</dim>
					<dim>3</dim>
					<dim>3</dim>
				</port>
			</input>
			<output>
				<port id="1" precision="FP32">
					<dim>512</dim>
					<dim>512</dim>
					<dim>3</dim>
					<dim>3</dim>
				</port>
			</output>
		</layer>
		<layer id="132" name="__module._model.backbone.layer4.0.bn2/aten::mul/Multiply_1" type="Convolution" version="opset1">
			<data strides="1, 1" dilations="1, 1" pads_begin="1, 1" pads_end="1, 1" auto_pad="explicit" />
			<input>
				<port id="0" precision="FP32">
					<dim>1</dim>
					<dim>512</dim>
					<dim>12</dim>
					<dim>12</dim>
				</port>
				<port id="1" precision="FP32">
					<dim>512</dim>
					<dim>512</dim>
					<dim>3</dim>
					<dim>3</dim>
				</port>
			</input>
			<output>
				<port id="2" precision="FP32" names="737">
					<dim>1</dim>
					<dim>512</dim>
					<dim>12</dim>
					<dim>12</dim>
				</port>
			</output>
		</layer>
		<layer id="133" name="__module._model.backbone.layer4.0.bn2/aten::add/Multiply_1_compressed" type="Const" version="opset1">
			<data element_type="f16" shape="1, 512, 1, 1" offset="12640022" size="1024" />
			<output>
				<port id="0" precision="FP16">
					<dim>1</dim>
					<dim>512</dim>
					<dim>1</dim>
					<dim>1</dim>
				</port>
			</output>
		</layer>
		<layer id="134" name="__module._model.backbone.layer4.0.bn2/aten::add/Multiply_1" type="Convert" version="opset1">
			<data destination_type="f32" />
			<rt_info>
				<attribute name="decompression" version="0" />
			</rt_info>
			<input>
				<port id="0" precision="FP16">
					<dim>1</dim>
					<dim>512</dim>
					<dim>1</dim>
					<dim>1</dim>
				</port>
			</input>
			<output>
				<port id="1" precision="FP32">
					<dim>1</dim>
					<dim>512</dim>
					<dim>1</dim>
					<dim>1</dim>
				</port>
			</output>
		</layer>
		<layer id="135" name="__module._model.backbone.layer4.0.bn2/aten::add/Add_1" type="Add" version="opset1">
			<data auto_broadcast="numpy" />
			<input>
				<port id="0" precision="FP32">
					<dim>1</dim>
					<dim>512</dim>
					<dim>12</dim>
					<dim>12</dim>
				</port>
				<port id="1" precision="FP32">
					<dim>1</dim>
					<dim>512</dim>
					<dim>1</dim>
					<dim>1</dim>
				</port>
			</input>
			<output>
				<port id="2" precision="FP32" names="738_1">
					<dim>1</dim>
					<dim>512</dim>
					<dim>12</dim>
					<dim>12</dim>
				</port>
			</output>
		</layer>
		<layer id="136" name="Multiply_65514_compressed" type="Const" version="opset1">
			<data element_type="f16" shape="512, 256, 1, 1" offset="12641046" size="262144" />
			<output>
				<port id="0" precision="FP16">
					<dim>512</dim>
					<dim>256</dim>
					<dim>1</dim>
					<dim>1</dim>
				</port>
			</output>
		</layer>
		<layer id="137" name="Multiply_65514" type="Convert" version="opset1">
			<data destination_type="f32" />
			<rt_info>
				<attribute name="decompression" version="0" />
			</rt_info>
			<input>
				<port id="0" precision="FP16">
					<dim>512</dim>
					<dim>256</dim>
					<dim>1</dim>
					<dim>1</dim>
				</port>
			</input>
			<output>
				<port id="1" precision="FP32">
					<dim>512</dim>
					<dim>256</dim>
					<dim>1</dim>
					<dim>1</dim>
				</port>
			</output>
		</layer>
		<layer id="138" name="__module._model.backbone.layer4.0.downsample.1/aten::mul/Multiply_1" type="Convolution" version="opset1">
			<data strides="2, 2" dilations="1, 1" pads_begin="0, 0" pads_end="0, 0" auto_pad="explicit" />
			<input>
				<port id="0" precision="FP32">
					<dim>1</dim>
					<dim>256</dim>
					<dim>24</dim>
					<dim>24</dim>
				</port>
				<port id="1" precision="FP32">
					<dim>512</dim>
					<dim>256</dim>
					<dim>1</dim>
					<dim>1</dim>
				</port>
			</input>
			<output>
				<port id="2" precision="FP32" names="764">
					<dim>1</dim>
					<dim>512</dim>
					<dim>12</dim>
					<dim>12</dim>
				</port>
			</output>
		</layer>
		<layer id="139" name="__module._model.backbone.layer4.0.downsample.1/aten::add/Multiply_1_compressed" type="Const" version="opset1">
			<data element_type="f16" shape="1, 512, 1, 1" offset="12903190" size="1024" />
			<output>
				<port id="0" precision="FP16">
					<dim>1</dim>
					<dim>512</dim>
					<dim>1</dim>
					<dim>1</dim>
				</port>
			</output>
		</layer>
		<layer id="140" name="__module._model.backbone.layer4.0.downsample.1/aten::add/Multiply_1" type="Convert" version="opset1">
			<data destination_type="f32" />
			<rt_info>
				<attribute name="decompression" version="0" />
			</rt_info>
			<input>
				<port id="0" precision="FP16">
					<dim>1</dim>
					<dim>512</dim>
					<dim>1</dim>
					<dim>1</dim>
				</port>
			</input>
			<output>
				<port id="1" precision="FP32">
					<dim>1</dim>
					<dim>512</dim>
					<dim>1</dim>
					<dim>1</dim>
				</port>
			</output>
		</layer>
		<layer id="141" name="__module._model.backbone.layer4.0.downsample.1/aten::add/Add_1" type="Add" version="opset1">
			<data auto_broadcast="numpy" />
			<input>
				<port id="0" precision="FP32">
					<dim>1</dim>
					<dim>512</dim>
					<dim>12</dim>
					<dim>12</dim>
				</port>
				<port id="1" precision="FP32">
					<dim>1</dim>
					<dim>512</dim>
					<dim>1</dim>
					<dim>1</dim>
				</port>
			</input>
			<output>
				<port id="2" precision="FP32" names="765,identity.5">
					<dim>1</dim>
					<dim>512</dim>
					<dim>12</dim>
					<dim>12</dim>
				</port>
			</output>
		</layer>
		<layer id="142" name="__module._model.backbone.layer4.0/aten::add_/Add" type="Add" version="opset1">
			<data auto_broadcast="numpy" />
			<input>
				<port id="0" precision="FP32">
					<dim>1</dim>
					<dim>512</dim>
					<dim>12</dim>
					<dim>12</dim>
				</port>
				<port id="1" precision="FP32">
					<dim>1</dim>
					<dim>512</dim>
					<dim>12</dim>
					<dim>12</dim>
				</port>
			</input>
			<output>
				<port id="2" precision="FP32" names="738_2">
					<dim>1</dim>
					<dim>512</dim>
					<dim>12</dim>
					<dim>12</dim>
				</port>
			</output>
		</layer>
		<layer id="143" name="__module._model.backbone.layer4.0.relu/aten::relu_/Relu_1" type="ReLU" version="opset1">
			<input>
				<port id="0" precision="FP32">
					<dim>1</dim>
					<dim>512</dim>
					<dim>12</dim>
					<dim>12</dim>
				</port>
			</input>
			<output>
				<port id="1" precision="FP32" names="766,input.65">
					<dim>1</dim>
					<dim>512</dim>
					<dim>12</dim>
					<dim>12</dim>
				</port>
			</output>
		</layer>
		<layer id="144" name="Multiply_65518_compressed" type="Const" version="opset1">
			<data element_type="f16" shape="512, 512, 3, 3" offset="12904214" size="4718592" />
			<output>
				<port id="0" precision="FP16">
					<dim>512</dim>
					<dim>512</dim>
					<dim>3</dim>
					<dim>3</dim>
				</port>
			</output>
		</layer>
		<layer id="145" name="Multiply_65518" type="Convert" version="opset1">
			<data destination_type="f32" />
			<rt_info>
				<attribute name="decompression" version="0" />
			</rt_info>
			<input>
				<port id="0" precision="FP16">
					<dim>512</dim>
					<dim>512</dim>
					<dim>3</dim>
					<dim>3</dim>
				</port>
			</input>
			<output>
				<port id="1" precision="FP32">
					<dim>512</dim>
					<dim>512</dim>
					<dim>3</dim>
					<dim>3</dim>
				</port>
			</output>
		</layer>
		<layer id="146" name="__module._model.backbone.layer4.1.bn1/aten::mul/Multiply_1" type="Convolution" version="opset1">
			<data strides="1, 1" dilations="1, 1" pads_begin="1, 1" pads_end="1, 1" auto_pad="explicit" />
			<input>
				<port id="0" precision="FP32">
					<dim>1</dim>
					<dim>512</dim>
					<dim>12</dim>
					<dim>12</dim>
				</port>
				<port id="1" precision="FP32">
					<dim>512</dim>
					<dim>512</dim>
					<dim>3</dim>
					<dim>3</dim>
				</port>
			</input>
			<output>
				<port id="2" precision="FP32" names="795">
					<dim>1</dim>
					<dim>512</dim>
					<dim>12</dim>
					<dim>12</dim>
				</port>
			</output>
		</layer>
		<layer id="147" name="__module._model.backbone.layer4.1.bn1/aten::add/Multiply_1_compressed" type="Const" version="opset1">
			<data element_type="f16" shape="1, 512, 1, 1" offset="17622806" size="1024" />
			<output>
				<port id="0" precision="FP16">
					<dim>1</dim>
					<dim>512</dim>
					<dim>1</dim>
					<dim>1</dim>
				</port>
			</output>
		</layer>
		<layer id="148" name="__module._model.backbone.layer4.1.bn1/aten::add/Multiply_1" type="Convert" version="opset1">
			<data destination_type="f32" />
			<rt_info>
				<attribute name="decompression" version="0" />
			</rt_info>
			<input>
				<port id="0" precision="FP16">
					<dim>1</dim>
					<dim>512</dim>
					<dim>1</dim>
					<dim>1</dim>
				</port>
			</input>
			<output>
				<port id="1" precision="FP32">
					<dim>1</dim>
					<dim>512</dim>
					<dim>1</dim>
					<dim>1</dim>
				</port>
			</output>
		</layer>
		<layer id="149" name="__module._model.backbone.layer4.1.bn1/aten::add/Add_1" type="Add" version="opset1">
			<data auto_broadcast="numpy" />
			<input>
				<port id="0" precision="FP32">
					<dim>1</dim>
					<dim>512</dim>
					<dim>12</dim>
					<dim>12</dim>
				</port>
				<port id="1" precision="FP32">
					<dim>1</dim>
					<dim>512</dim>
					<dim>1</dim>
					<dim>1</dim>
				</port>
			</input>
			<output>
				<port id="2" precision="FP32" names="796_1">
					<dim>1</dim>
					<dim>512</dim>
					<dim>12</dim>
					<dim>12</dim>
				</port>
			</output>
		</layer>
		<layer id="150" name="__module._model.backbone.layer4.1.relu/aten::relu_/Relu" type="ReLU" version="opset1">
			<input>
				<port id="0" precision="FP32">
					<dim>1</dim>
					<dim>512</dim>
					<dim>12</dim>
					<dim>12</dim>
				</port>
			</input>
			<output>
				<port id="1" precision="FP32" names="796,input.69">
					<dim>1</dim>
					<dim>512</dim>
					<dim>12</dim>
					<dim>12</dim>
				</port>
			</output>
		</layer>
		<layer id="151" name="Multiply_65522_compressed" type="Const" version="opset1">
			<data element_type="f16" shape="512, 512, 3, 3" offset="17623830" size="4718592" />
			<output>
				<port id="0" precision="FP16">
					<dim>512</dim>
					<dim>512</dim>
					<dim>3</dim>
					<dim>3</dim>
				</port>
			</output>
		</layer>
		<layer id="152" name="Multiply_65522" type="Convert" version="opset1">
			<data destination_type="f32" />
			<rt_info>
				<attribute name="decompression" version="0" />
			</rt_info>
			<input>
				<port id="0" precision="FP16">
					<dim>512</dim>
					<dim>512</dim>
					<dim>3</dim>
					<dim>3</dim>
				</port>
			</input>
			<output>
				<port id="1" precision="FP32">
					<dim>512</dim>
					<dim>512</dim>
					<dim>3</dim>
					<dim>3</dim>
				</port>
			</output>
		</layer>
		<layer id="153" name="__module._model.backbone.layer4.1.bn2/aten::mul/Multiply_1" type="Convolution" version="opset1">
			<data strides="1, 1" dilations="1, 1" pads_begin="1, 1" pads_end="1, 1" auto_pad="explicit" />
			<input>
				<port id="0" precision="FP32">
					<dim>1</dim>
					<dim>512</dim>
					<dim>12</dim>
					<dim>12</dim>
				</port>
				<port id="1" precision="FP32">
					<dim>512</dim>
					<dim>512</dim>
					<dim>3</dim>
					<dim>3</dim>
				</port>
			</input>
			<output>
				<port id="2" precision="FP32" names="821">
					<dim>1</dim>
					<dim>512</dim>
					<dim>12</dim>
					<dim>12</dim>
				</port>
			</output>
		</layer>
		<layer id="154" name="__module._model.backbone.layer4.1.bn2/aten::add/Multiply_1_compressed" type="Const" version="opset1">
			<data element_type="f16" shape="1, 512, 1, 1" offset="22342422" size="1024" />
			<output>
				<port id="0" precision="FP16">
					<dim>1</dim>
					<dim>512</dim>
					<dim>1</dim>
					<dim>1</dim>
				</port>
			</output>
		</layer>
		<layer id="155" name="__module._model.backbone.layer4.1.bn2/aten::add/Multiply_1" type="Convert" version="opset1">
			<data destination_type="f32" />
			<rt_info>
				<attribute name="decompression" version="0" />
			</rt_info>
			<input>
				<port id="0" precision="FP16">
					<dim>1</dim>
					<dim>512</dim>
					<dim>1</dim>
					<dim>1</dim>
				</port>
			</input>
			<output>
				<port id="1" precision="FP32">
					<dim>1</dim>
					<dim>512</dim>
					<dim>1</dim>
					<dim>1</dim>
				</port>
			</output>
		</layer>
		<layer id="156" name="__module._model.backbone.layer4.1.bn2/aten::add/Add_1" type="Add" version="opset1">
			<data auto_broadcast="numpy" />
			<input>
				<port id="0" precision="FP32">
					<dim>1</dim>
					<dim>512</dim>
					<dim>12</dim>
					<dim>12</dim>
				</port>
				<port id="1" precision="FP32">
					<dim>1</dim>
					<dim>512</dim>
					<dim>1</dim>
					<dim>1</dim>
				</port>
			</input>
			<output>
				<port id="2" precision="FP32" names="822_1">
					<dim>1</dim>
					<dim>512</dim>
					<dim>12</dim>
					<dim>12</dim>
				</port>
			</output>
		</layer>
		<layer id="157" name="__module._model.backbone.layer4.1/aten::add_/Add" type="Add" version="opset1">
			<data auto_broadcast="numpy" />
			<input>
				<port id="0" precision="FP32">
					<dim>1</dim>
					<dim>512</dim>
					<dim>12</dim>
					<dim>12</dim>
				</port>
				<port id="1" precision="FP32">
					<dim>1</dim>
					<dim>512</dim>
					<dim>12</dim>
					<dim>12</dim>
				</port>
			</input>
			<output>
				<port id="2" precision="FP32" names="822_2">
					<dim>1</dim>
					<dim>512</dim>
					<dim>12</dim>
					<dim>12</dim>
				</port>
			</output>
		</layer>
		<layer id="158" name="__module._model.backbone.layer4.1.relu/aten::relu_/Relu_1" type="ReLU" version="opset1">
			<input>
				<port id="0" precision="FP32">
					<dim>1</dim>
					<dim>512</dim>
					<dim>12</dim>
					<dim>12</dim>
				</port>
			</input>
			<output>
				<port id="1" precision="FP32" names="823,input.73">
					<dim>1</dim>
					<dim>512</dim>
					<dim>12</dim>
					<dim>12</dim>
				</port>
			</output>
		</layer>
		<layer id="159" name="self._model.encoder_img_feat_input_proj.weight_compressed" type="Const" version="opset1">
			<data element_type="f16" shape="512, 512, 1, 1" offset="22343446" size="524288" />
			<output>
				<port id="0" precision="FP16" names="self._model.encoder_img_feat_input_proj.weight">
					<dim>512</dim>
					<dim>512</dim>
					<dim>1</dim>
					<dim>1</dim>
				</port>
			</output>
		</layer>
		<layer id="160" name="self._model.encoder_img_feat_input_proj.weight" type="Convert" version="opset1">
			<data destination_type="f32" />
			<rt_info>
				<attribute name="decompression" version="0" />
			</rt_info>
			<input>
				<port id="0" precision="FP16">
					<dim>512</dim>
					<dim>512</dim>
					<dim>1</dim>
					<dim>1</dim>
				</port>
			</input>
			<output>
				<port id="1" precision="FP32">
					<dim>512</dim>
					<dim>512</dim>
					<dim>1</dim>
					<dim>1</dim>
				</port>
			</output>
		</layer>
		<layer id="161" name="__module._model.encoder_img_feat_input_proj/aten::_convolution/Convolution" type="Convolution" version="opset1">
			<data strides="1, 1" dilations="1, 1" pads_begin="0, 0" pads_end="0, 0" auto_pad="explicit" />
			<input>
				<port id="0" precision="FP32">
					<dim>1</dim>
					<dim>512</dim>
					<dim>12</dim>
					<dim>12</dim>
				</port>
				<port id="1" precision="FP32">
					<dim>512</dim>
					<dim>512</dim>
					<dim>1</dim>
					<dim>1</dim>
				</port>
			</input>
			<output>
				<port id="2" precision="FP32">
					<dim>1</dim>
					<dim>512</dim>
					<dim>12</dim>
					<dim>12</dim>
				</port>
			</output>
		</layer>
		<layer id="162" name="__module._model.encoder_img_feat_input_proj/aten::_convolution/Reshape_compressed" type="Const" version="opset1">
			<data element_type="f16" shape="1, 512, 1, 1" offset="22867734" size="1024" />
			<output>
				<port id="0" precision="FP16">
					<dim>1</dim>
					<dim>512</dim>
					<dim>1</dim>
					<dim>1</dim>
				</port>
			</output>
		</layer>
		<layer id="163" name="__module._model.encoder_img_feat_input_proj/aten::_convolution/Reshape" type="Convert" version="opset1">
			<data destination_type="f32" />
			<rt_info>
				<attribute name="decompression" version="0" />
			</rt_info>
			<input>
				<port id="0" precision="FP16">
					<dim>1</dim>
					<dim>512</dim>
					<dim>1</dim>
					<dim>1</dim>
				</port>
			</input>
			<output>
				<port id="1" precision="FP32">
					<dim>1</dim>
					<dim>512</dim>
					<dim>1</dim>
					<dim>1</dim>
				</port>
			</output>
		</layer>
		<layer id="164" name="__module._model.encoder_img_feat_input_proj/aten::_convolution/Add" type="Add" version="opset1">
			<data auto_broadcast="numpy" />
			<input>
				<port id="0" precision="FP32">
					<dim>1</dim>
					<dim>512</dim>
					<dim>12</dim>
					<dim>12</dim>
				</port>
				<port id="1" precision="FP32">
					<dim>1</dim>
					<dim>512</dim>
					<dim>1</dim>
					<dim>1</dim>
				</port>
			</input>
			<output>
				<port id="2" precision="FP32" names="876,x.43">
					<dim>1</dim>
					<dim>512</dim>
					<dim>12</dim>
					<dim>12</dim>
				</port>
			</output>
		</layer>
		<layer id="165" name="ShapeOf_67552" type="ShapeOf" version="opset3">
			<data output_type="i64" />
			<input>
				<port id="0" precision="FP32">
					<dim>1</dim>
					<dim>512</dim>
					<dim>12</dim>
					<dim>12</dim>
				</port>
			</input>
			<output>
				<port id="1" precision="I64">
					<dim>4</dim>
				</port>
			</output>
		</layer>
		<layer id="166" name="Constant_67553" type="Const" version="opset1">
			<data element_type="i64" shape="1" offset="22868758" size="8" />
			<rt_info>
				<attribute name="precise" version="0" />
			</rt_info>
			<output>
				<port id="0" precision="I64">
					<dim>1</dim>
				</port>
			</output>
		</layer>
		<layer id="167" name="Constant_67554" type="Const" version="opset1">
			<data element_type="i64" shape="" offset="22868758" size="8" />
			<rt_info>
				<attribute name="precise" version="0" />
			</rt_info>
			<output>
				<port id="0" precision="I64" />
			</output>
		</layer>
		<layer id="168" name="Gather_67555" type="Gather" version="opset8">
			<data batch_dims="0" />
			<input>
				<port id="0" precision="I64">
					<dim>4</dim>
				</port>
				<port id="1" precision="I64">
					<dim>1</dim>
				</port>
				<port id="2" precision="I64" />
			</input>
			<output>
				<port id="3" precision="I64" names="1840,1851,1852,227,2803,2814,2815,3155,3240,3325,3410,3512,3573,877,888,889">
					<dim>1</dim>
				</port>
			</output>
		</layer>
		<layer id="169" name="Constant_19558" type="Const" version="opset1">
			<data element_type="i64" shape="1" offset="22868766" size="8" />
			<rt_info>
				<attribute name="precise" version="0" />
			</rt_info>
			<output>
				<port id="0" precision="I64">
					<dim>1</dim>
				</port>
			</output>
		</layer>
		<layer id="170" name="__module._model/prim::ListConstruct/SequenceMark" type="Concat" version="opset1">
			<data axis="0" />
			<input>
				<port id="0" precision="I64">
					<dim>1</dim>
				</port>
				<port id="1" precision="I64">
					<dim>1</dim>
				</port>
				<port id="2" precision="I64">
					<dim>1</dim>
				</port>
			</input>
			<output>
				<port id="3" precision="I64">
					<dim>3</dim>
				</port>
			</output>
		</layer>
		<layer id="171" name="__module._model/aten::zeros/Broadcast" type="Broadcast" version="opset3">
			<data mode="numpy" />
			<input>
				<port id="0" precision="FP32" />
				<port id="1" precision="I64">
					<dim>3</dim>
				</port>
			</input>
			<output>
				<port id="2" precision="FP32" names="3482,tensor.1">
					<dim>100</dim>
					<dim>1</dim>
					<dim>512</dim>
				</port>
			</output>
		</layer>
		<layer id="172" name="__module._model.decoder.layers.0/aten::add/Multiply_compressed" type="Const" version="opset1">
			<data element_type="f16" shape="100, 1, 512" offset="22868774" size="102400" />
			<output>
				<port id="0" precision="FP16">
					<dim>100</dim>
					<dim>1</dim>
					<dim>512</dim>
				</port>
			</output>
		</layer>
		<layer id="173" name="__module._model.decoder.layers.0/aten::add/Multiply" type="Convert" version="opset1">
			<data destination_type="f32" />
			<rt_info>
				<attribute name="decompression" version="0" />
			</rt_info>
			<input>
				<port id="0" precision="FP16">
					<dim>100</dim>
					<dim>1</dim>
					<dim>512</dim>
				</port>
			</input>
			<output>
				<port id="1" precision="FP32">
					<dim>100</dim>
					<dim>1</dim>
					<dim>512</dim>
				</port>
			</output>
		</layer>
		<layer id="174" name="__module._model.decoder.layers.0/aten::add/Add" type="Add" version="opset1">
			<data auto_broadcast="numpy" />
			<input>
				<port id="0" precision="FP32">
					<dim>100</dim>
					<dim>1</dim>
					<dim>512</dim>
				</port>
				<port id="1" precision="FP32">
					<dim>100</dim>
					<dim>1</dim>
					<dim>512</dim>
				</port>
			</input>
			<output>
				<port id="2" precision="FP32" names="3503,query.9">
					<dim>100</dim>
					<dim>1</dim>
					<dim>512</dim>
				</port>
			</output>
		</layer>
		<layer id="175" name="__module._model.decoder.layers.0.self_attn/prim::ListUnpack/VariadicSplit.0_compressed" type="Const" version="opset1">
			<data element_type="f16" shape="512, 512" offset="22971174" size="524288" />
			<output>
				<port id="0" precision="FP16" names="3521,w_q.9">
					<dim>512</dim>
					<dim>512</dim>
				</port>
			</output>
		</layer>
		<layer id="176" name="__module._model.decoder.layers.0.self_attn/prim::ListUnpack/VariadicSplit.0" type="Convert" version="opset1">
			<data destination_type="f32" />
			<rt_info>
				<attribute name="decompression" version="0" />
			</rt_info>
			<input>
				<port id="0" precision="FP16">
					<dim>512</dim>
					<dim>512</dim>
				</port>
			</input>
			<output>
				<port id="1" precision="FP32">
					<dim>512</dim>
					<dim>512</dim>
				</port>
			</output>
		</layer>
		<layer id="177" name="__module._model.decoder.layers.0.self_attn/aten::linear/MatMul" type="MatMul" version="opset1">
			<data transpose_a="false" transpose_b="true" />
			<input>
				<port id="0" precision="FP32">
					<dim>100</dim>
					<dim>1</dim>
					<dim>512</dim>
				</port>
				<port id="1" precision="FP32">
					<dim>512</dim>
					<dim>512</dim>
				</port>
			</input>
			<output>
				<port id="2" precision="FP32">
					<dim>100</dim>
					<dim>1</dim>
					<dim>512</dim>
				</port>
			</output>
		</layer>
		<layer id="178" name="Constant_66075_compressed" type="Const" version="opset1">
			<data element_type="f16" shape="1, 1, 512" offset="23495462" size="1024" />
			<output>
				<port id="0" precision="FP16">
					<dim>1</dim>
					<dim>1</dim>
					<dim>512</dim>
				</port>
			</output>
		</layer>
		<layer id="179" name="Constant_66075" type="Convert" version="opset1">
			<data destination_type="f32" />
			<rt_info>
				<attribute name="decompression" version="0" />
			</rt_info>
			<input>
				<port id="0" precision="FP16">
					<dim>1</dim>
					<dim>1</dim>
					<dim>512</dim>
				</port>
			</input>
			<output>
				<port id="1" precision="FP32">
					<dim>1</dim>
					<dim>1</dim>
					<dim>512</dim>
				</port>
			</output>
		</layer>
		<layer id="180" name="__module._model.decoder.layers.0.self_attn/aten::linear/Add" type="Add" version="opset1">
			<data auto_broadcast="numpy" />
			<input>
				<port id="0" precision="FP32">
					<dim>100</dim>
					<dim>1</dim>
					<dim>512</dim>
				</port>
				<port id="1" precision="FP32">
					<dim>1</dim>
					<dim>1</dim>
					<dim>512</dim>
				</port>
			</input>
			<output>
				<port id="2" precision="FP32" names="3528,q.17">
					<dim>100</dim>
					<dim>1</dim>
					<dim>512</dim>
				</port>
			</output>
		</layer>
		<layer id="181" name="Constant_67690" type="Const" version="opset1">
			<data element_type="i64" shape="3" offset="23496486" size="24" />
			<rt_info>
				<attribute name="precise" version="0" />
			</rt_info>
			<output>
				<port id="0" precision="I64">
					<dim>3</dim>
				</port>
			</output>
		</layer>
		<layer id="182" name="__module._model.decoder.layers.0.self_attn/aten::view/Reshape" type="Reshape" version="opset1">
			<data special_zero="true" />
			<input>
				<port id="0" precision="FP32">
					<dim>100</dim>
					<dim>1</dim>
					<dim>512</dim>
				</port>
				<port id="1" precision="I64">
					<dim>3</dim>
				</port>
			</input>
			<output>
				<port id="2" precision="FP32" names="3534">
					<dim>100</dim>
					<dim>8</dim>
					<dim>64</dim>
				</port>
			</output>
		</layer>
		<layer id="183" name="__module._model.decoder.layers.0.self_attn/aten::transpose/Constant" type="Const" version="opset1">
			<data element_type="i32" shape="3" offset="23496510" size="12" />
			<output>
				<port id="0" precision="I32">
					<dim>3</dim>
				</port>
			</output>
		</layer>
		<layer id="184" name="__module._model.decoder.layers.0.self_attn/aten::transpose/Transpose" type="Transpose" version="opset1">
			<input>
				<port id="0" precision="FP32">
					<dim>100</dim>
					<dim>8</dim>
					<dim>64</dim>
				</port>
				<port id="1" precision="I32">
					<dim>3</dim>
				</port>
			</input>
			<output>
				<port id="2" precision="FP32" names="3535,q.19">
					<dim>8</dim>
					<dim>100</dim>
					<dim>64</dim>
				</port>
			</output>
		</layer>
		<layer id="185" name="Constant_66076_compressed" type="Const" version="opset1">
			<data element_type="f16" shape="1, 1, 1" offset="23496522" size="2" />
			<output>
				<port id="0" precision="FP16">
					<dim>1</dim>
					<dim>1</dim>
					<dim>1</dim>
				</port>
			</output>
		</layer>
		<layer id="186" name="Constant_66076" type="Convert" version="opset1">
			<data destination_type="f32" />
			<rt_info>
				<attribute name="decompression" version="0" />
			</rt_info>
			<input>
				<port id="0" precision="FP16">
					<dim>1</dim>
					<dim>1</dim>
					<dim>1</dim>
				</port>
			</input>
			<output>
				<port id="1" precision="FP32">
					<dim>1</dim>
					<dim>1</dim>
					<dim>1</dim>
				</port>
			</output>
		</layer>
		<layer id="187" name="__module._model.decoder.layers.0.self_attn/aten::mul/Multiply_1" type="Multiply" version="opset1">
			<data auto_broadcast="numpy" />
			<input>
				<port id="0" precision="FP32">
					<dim>8</dim>
					<dim>100</dim>
					<dim>64</dim>
				</port>
				<port id="1" precision="FP32">
					<dim>1</dim>
					<dim>1</dim>
					<dim>1</dim>
				</port>
			</input>
			<output>
				<port id="2" precision="FP32" names="3548,q_scaled.9">
					<dim>8</dim>
					<dim>100</dim>
					<dim>64</dim>
				</port>
			</output>
		</layer>
		<layer id="188" name="__module._model.decoder.layers.0.self_attn/prim::ListUnpack/VariadicSplit.1_compressed" type="Const" version="opset1">
			<data element_type="f16" shape="512, 512" offset="23496524" size="524288" />
			<output>
				<port id="0" precision="FP16" names="3522,w_k.9">
					<dim>512</dim>
					<dim>512</dim>
				</port>
			</output>
		</layer>
		<layer id="189" name="__module._model.decoder.layers.0.self_attn/prim::ListUnpack/VariadicSplit.1" type="Convert" version="opset1">
			<data destination_type="f32" />
			<rt_info>
				<attribute name="decompression" version="0" />
			</rt_info>
			<input>
				<port id="0" precision="FP16">
					<dim>512</dim>
					<dim>512</dim>
				</port>
			</input>
			<output>
				<port id="1" precision="FP32">
					<dim>512</dim>
					<dim>512</dim>
				</port>
			</output>
		</layer>
		<layer id="190" name="__module._model.decoder.layers.0.self_attn/aten::linear/MatMul_1" type="MatMul" version="opset1">
			<data transpose_a="false" transpose_b="true" />
			<input>
				<port id="0" precision="FP32">
					<dim>100</dim>
					<dim>1</dim>
					<dim>512</dim>
				</port>
				<port id="1" precision="FP32">
					<dim>512</dim>
					<dim>512</dim>
				</port>
			</input>
			<output>
				<port id="2" precision="FP32">
					<dim>100</dim>
					<dim>1</dim>
					<dim>512</dim>
				</port>
			</output>
		</layer>
		<layer id="191" name="Constant_66077_compressed" type="Const" version="opset1">
			<data element_type="f16" shape="1, 1, 512" offset="24020812" size="1024" />
			<output>
				<port id="0" precision="FP16">
					<dim>1</dim>
					<dim>1</dim>
					<dim>512</dim>
				</port>
			</output>
		</layer>
		<layer id="192" name="Constant_66077" type="Convert" version="opset1">
			<data destination_type="f32" />
			<rt_info>
				<attribute name="decompression" version="0" />
			</rt_info>
			<input>
				<port id="0" precision="FP16">
					<dim>1</dim>
					<dim>1</dim>
					<dim>512</dim>
				</port>
			</input>
			<output>
				<port id="1" precision="FP32">
					<dim>1</dim>
					<dim>1</dim>
					<dim>512</dim>
				</port>
			</output>
		</layer>
		<layer id="193" name="__module._model.decoder.layers.0.self_attn/aten::linear/Add_1" type="Add" version="opset1">
			<data auto_broadcast="numpy" />
			<input>
				<port id="0" precision="FP32">
					<dim>100</dim>
					<dim>1</dim>
					<dim>512</dim>
				</port>
				<port id="1" precision="FP32">
					<dim>1</dim>
					<dim>1</dim>
					<dim>512</dim>
				</port>
			</input>
			<output>
				<port id="2" precision="FP32" names="3529,k.17">
					<dim>100</dim>
					<dim>1</dim>
					<dim>512</dim>
				</port>
			</output>
		</layer>
		<layer id="194" name="Constant_67691" type="Const" version="opset1">
			<data element_type="i64" shape="3" offset="23496486" size="24" />
			<rt_info>
				<attribute name="precise" version="0" />
			</rt_info>
			<output>
				<port id="0" precision="I64">
					<dim>3</dim>
				</port>
			</output>
		</layer>
		<layer id="195" name="__module._model.decoder.layers.0.self_attn/aten::view/Reshape_1" type="Reshape" version="opset1">
			<data special_zero="true" />
			<input>
				<port id="0" precision="FP32">
					<dim>100</dim>
					<dim>1</dim>
					<dim>512</dim>
				</port>
				<port id="1" precision="I64">
					<dim>3</dim>
				</port>
			</input>
			<output>
				<port id="2" precision="FP32" names="3540">
					<dim>100</dim>
					<dim>8</dim>
					<dim>64</dim>
				</port>
			</output>
		</layer>
		<layer id="196" name="__module._model.decoder.layers.0.self_attn/aten::transpose/Constant_1" type="Const" version="opset1">
			<data element_type="i32" shape="3" offset="23496510" size="12" />
			<output>
				<port id="0" precision="I32">
					<dim>3</dim>
				</port>
			</output>
		</layer>
		<layer id="197" name="__module._model.decoder.layers.0.self_attn/aten::transpose/Transpose_1" type="Transpose" version="opset1">
			<input>
				<port id="0" precision="FP32">
					<dim>100</dim>
					<dim>8</dim>
					<dim>64</dim>
				</port>
				<port id="1" precision="I32">
					<dim>3</dim>
				</port>
			</input>
			<output>
				<port id="2" precision="FP32" names="3541,k.19">
					<dim>8</dim>
					<dim>100</dim>
					<dim>64</dim>
				</port>
			</output>
		</layer>
		<layer id="198" name="__module._model.decoder.layers.0.self_attn/aten::bmm/MatMul" type="MatMul" version="opset1">
			<data transpose_a="false" transpose_b="true" />
			<input>
				<port id="0" precision="FP32">
					<dim>8</dim>
					<dim>100</dim>
					<dim>64</dim>
				</port>
				<port id="1" precision="FP32">
					<dim>8</dim>
					<dim>100</dim>
					<dim>64</dim>
				</port>
			</input>
			<output>
				<port id="2" precision="FP32" names="3550,input.287">
					<dim>8</dim>
					<dim>100</dim>
					<dim>100</dim>
				</port>
			</output>
		</layer>
		<layer id="199" name="__module._model.decoder.layers.0.self_attn/aten::softmax/Softmax" type="SoftMax" version="opset8">
			<data axis="-1" />
			<input>
				<port id="0" precision="FP32">
					<dim>8</dim>
					<dim>100</dim>
					<dim>100</dim>
				</port>
			</input>
			<output>
				<port id="1" precision="FP32" names="3551,attn_output_weights.17">
					<dim>8</dim>
					<dim>100</dim>
					<dim>100</dim>
				</port>
			</output>
		</layer>
		<layer id="200" name="__module._model.decoder.layers.0.self_attn/prim::ListUnpack/VariadicSplit.2_compressed" type="Const" version="opset1">
			<data element_type="f16" shape="512, 512" offset="24021836" size="524288" />
			<output>
				<port id="0" precision="FP16" names="3523,w_v.9">
					<dim>512</dim>
					<dim>512</dim>
				</port>
			</output>
		</layer>
		<layer id="201" name="__module._model.decoder.layers.0.self_attn/prim::ListUnpack/VariadicSplit.2" type="Convert" version="opset1">
			<data destination_type="f32" />
			<rt_info>
				<attribute name="decompression" version="0" />
			</rt_info>
			<input>
				<port id="0" precision="FP16">
					<dim>512</dim>
					<dim>512</dim>
				</port>
			</input>
			<output>
				<port id="1" precision="FP32">
					<dim>512</dim>
					<dim>512</dim>
				</port>
			</output>
		</layer>
		<layer id="202" name="__module._model.decoder.layers.0.self_attn/aten::linear/MatMul_2" type="MatMul" version="opset1">
			<data transpose_a="false" transpose_b="true" />
			<input>
				<port id="0" precision="FP32">
					<dim>100</dim>
					<dim>1</dim>
					<dim>512</dim>
				</port>
				<port id="1" precision="FP32">
					<dim>512</dim>
					<dim>512</dim>
				</port>
			</input>
			<output>
				<port id="2" precision="FP32">
					<dim>100</dim>
					<dim>1</dim>
					<dim>512</dim>
				</port>
			</output>
		</layer>
		<layer id="203" name="Constant_66078_compressed" type="Const" version="opset1">
			<data element_type="f16" shape="1, 1, 512" offset="24546124" size="1024" />
			<output>
				<port id="0" precision="FP16">
					<dim>1</dim>
					<dim>1</dim>
					<dim>512</dim>
				</port>
			</output>
		</layer>
		<layer id="204" name="Constant_66078" type="Convert" version="opset1">
			<data destination_type="f32" />
			<rt_info>
				<attribute name="decompression" version="0" />
			</rt_info>
			<input>
				<port id="0" precision="FP16">
					<dim>1</dim>
					<dim>1</dim>
					<dim>512</dim>
				</port>
			</input>
			<output>
				<port id="1" precision="FP32">
					<dim>1</dim>
					<dim>1</dim>
					<dim>512</dim>
				</port>
			</output>
		</layer>
		<layer id="205" name="__module._model.decoder.layers.0.self_attn/aten::linear/Add_2" type="Add" version="opset1">
			<data auto_broadcast="numpy" />
			<input>
				<port id="0" precision="FP32">
					<dim>100</dim>
					<dim>1</dim>
					<dim>512</dim>
				</port>
				<port id="1" precision="FP32">
					<dim>1</dim>
					<dim>1</dim>
					<dim>512</dim>
				</port>
			</input>
			<output>
				<port id="2" precision="FP32" names="3530,v.17">
					<dim>100</dim>
					<dim>1</dim>
					<dim>512</dim>
				</port>
			</output>
		</layer>
		<layer id="206" name="Constant_67692" type="Const" version="opset1">
			<data element_type="i64" shape="3" offset="23496486" size="24" />
			<rt_info>
				<attribute name="precise" version="0" />
			</rt_info>
			<output>
				<port id="0" precision="I64">
					<dim>3</dim>
				</port>
			</output>
		</layer>
		<layer id="207" name="__module._model.decoder.layers.0.self_attn/aten::view/Reshape_2" type="Reshape" version="opset1">
			<data special_zero="true" />
			<input>
				<port id="0" precision="FP32">
					<dim>100</dim>
					<dim>1</dim>
					<dim>512</dim>
				</port>
				<port id="1" precision="I64">
					<dim>3</dim>
				</port>
			</input>
			<output>
				<port id="2" precision="FP32" names="3546">
					<dim>100</dim>
					<dim>8</dim>
					<dim>64</dim>
				</port>
			</output>
		</layer>
		<layer id="208" name="__module._model.decoder.layers.0.self_attn/aten::transpose/Constant_3" type="Const" version="opset1">
			<data element_type="i32" shape="3" offset="23496510" size="12" />
			<output>
				<port id="0" precision="I32">
					<dim>3</dim>
				</port>
			</output>
		</layer>
		<layer id="209" name="__module._model.decoder.layers.0.self_attn/aten::transpose/Transpose_3" type="Transpose" version="opset1">
			<input>
				<port id="0" precision="FP32">
					<dim>100</dim>
					<dim>8</dim>
					<dim>64</dim>
				</port>
				<port id="1" precision="I32">
					<dim>3</dim>
				</port>
			</input>
			<output>
				<port id="2" precision="FP32" names="3547,v.19">
					<dim>8</dim>
					<dim>100</dim>
					<dim>64</dim>
				</port>
			</output>
		</layer>
		<layer id="210" name="__module._model.decoder.layers.0.self_attn/aten::bmm/MatMul_1" type="MatMul" version="opset1">
			<data transpose_a="false" transpose_b="false" />
			<input>
				<port id="0" precision="FP32">
					<dim>8</dim>
					<dim>100</dim>
					<dim>100</dim>
				</port>
				<port id="1" precision="FP32">
					<dim>8</dim>
					<dim>100</dim>
					<dim>64</dim>
				</port>
			</input>
			<output>
				<port id="2" precision="FP32" names="3552,attn_output.25">
					<dim>8</dim>
					<dim>100</dim>
					<dim>64</dim>
				</port>
			</output>
		</layer>
		<layer id="211" name="__module._model.decoder.layers.0.self_attn/aten::transpose/Constant_4" type="Const" version="opset1">
			<data element_type="i32" shape="3" offset="23496510" size="12" />
			<output>
				<port id="0" precision="I32">
					<dim>3</dim>
				</port>
			</output>
		</layer>
		<layer id="212" name="__module._model.decoder.layers.0.self_attn/aten::transpose/Transpose_4" type="Transpose" version="opset1">
			<input>
				<port id="0" precision="FP32">
					<dim>8</dim>
					<dim>100</dim>
					<dim>64</dim>
				</port>
				<port id="1" precision="I32">
					<dim>3</dim>
				</port>
			</input>
			<output>
				<port id="2" precision="FP32" names="3553">
					<dim>100</dim>
					<dim>8</dim>
					<dim>64</dim>
				</port>
			</output>
		</layer>
		<layer id="213" name="Concat_47716" type="Const" version="opset1">
			<data element_type="i64" shape="2" offset="24547148" size="16" />
			<rt_info>
				<attribute name="precise" version="0" />
			</rt_info>
			<output>
				<port id="0" precision="I64">
					<dim>2</dim>
				</port>
			</output>
		</layer>
		<layer id="214" name="__module._model.decoder.layers.0.self_attn/aten::view/Reshape_3" type="Reshape" version="opset1">
			<data special_zero="false" />
			<input>
				<port id="0" precision="FP32">
					<dim>100</dim>
					<dim>8</dim>
					<dim>64</dim>
				</port>
				<port id="1" precision="I64">
					<dim>2</dim>
				</port>
			</input>
			<output>
				<port id="2" precision="FP32" names="3558,attn_output.27">
					<dim>100</dim>
					<dim>512</dim>
				</port>
			</output>
		</layer>
		<layer id="215" name="self._model.decoder.layers.0.self_attn.out_proj.weight_compressed" type="Const" version="opset1">
			<data element_type="f16" shape="512, 512" offset="24547164" size="524288" />
			<output>
				<port id="0" precision="FP16" names="self._model.decoder.layers.0.self_attn.out_proj.weight">
					<dim>512</dim>
					<dim>512</dim>
				</port>
			</output>
		</layer>
		<layer id="216" name="self._model.decoder.layers.0.self_attn.out_proj.weight" type="Convert" version="opset1">
			<data destination_type="f32" />
			<rt_info>
				<attribute name="decompression" version="0" />
			</rt_info>
			<input>
				<port id="0" precision="FP16">
					<dim>512</dim>
					<dim>512</dim>
				</port>
			</input>
			<output>
				<port id="1" precision="FP32">
					<dim>512</dim>
					<dim>512</dim>
				</port>
			</output>
		</layer>
		<layer id="217" name="__module._model.decoder.layers.0.self_attn/aten::linear/MatMul_3" type="MatMul" version="opset1">
			<data transpose_a="false" transpose_b="true" />
			<input>
				<port id="0" precision="FP32">
					<dim>100</dim>
					<dim>512</dim>
				</port>
				<port id="1" precision="FP32">
					<dim>512</dim>
					<dim>512</dim>
				</port>
			</input>
			<output>
				<port id="2" precision="FP32">
					<dim>100</dim>
					<dim>512</dim>
				</port>
			</output>
		</layer>
		<layer id="218" name="Constant_66079_compressed" type="Const" version="opset1">
			<data element_type="f16" shape="1, 512" offset="25071452" size="1024" />
			<output>
				<port id="0" precision="FP16">
					<dim>1</dim>
					<dim>512</dim>
				</port>
			</output>
		</layer>
		<layer id="219" name="Constant_66079" type="Convert" version="opset1">
			<data destination_type="f32" />
			<rt_info>
				<attribute name="decompression" version="0" />
			</rt_info>
			<input>
				<port id="0" precision="FP16">
					<dim>1</dim>
					<dim>512</dim>
				</port>
			</input>
			<output>
				<port id="1" precision="FP32">
					<dim>1</dim>
					<dim>512</dim>
				</port>
			</output>
		</layer>
		<layer id="220" name="__module._model.decoder.layers.0.self_attn/aten::linear/Add_3" type="Add" version="opset1">
			<data auto_broadcast="numpy" />
			<input>
				<port id="0" precision="FP32">
					<dim>100</dim>
					<dim>512</dim>
				</port>
				<port id="1" precision="FP32">
					<dim>1</dim>
					<dim>512</dim>
				</port>
			</input>
			<output>
				<port id="2" precision="FP32" names="3559,attn_output.29">
					<dim>100</dim>
					<dim>512</dim>
				</port>
			</output>
		</layer>
		<layer id="221" name="Constant_67693" type="Const" version="opset1">
			<data element_type="i64" shape="3" offset="25072476" size="24" />
			<rt_info>
				<attribute name="precise" version="0" />
			</rt_info>
			<output>
				<port id="0" precision="I64">
					<dim>3</dim>
				</port>
			</output>
		</layer>
		<layer id="222" name="__module._model.decoder.layers.0.self_attn/aten::view/Reshape_4" type="Reshape" version="opset1">
			<data special_zero="true" />
			<input>
				<port id="0" precision="FP32">
					<dim>100</dim>
					<dim>512</dim>
				</port>
				<port id="1" precision="I64">
					<dim>3</dim>
				</port>
			</input>
			<output>
				<port id="2" precision="FP32" names="3562,input.289">
					<dim>100</dim>
					<dim>1</dim>
					<dim>512</dim>
				</port>
			</output>
		</layer>
		<layer id="223" name="__module._model.decoder.layers.0/aten::add/Add_1" type="Add" version="opset1">
			<data auto_broadcast="numpy" />
			<input>
				<port id="0" precision="FP32">
					<dim>100</dim>
					<dim>1</dim>
					<dim>512</dim>
				</port>
				<port id="1" precision="FP32">
					<dim>100</dim>
					<dim>1</dim>
					<dim>512</dim>
				</port>
			</input>
			<output>
				<port id="2" precision="FP32" names="3564,input.291">
					<dim>100</dim>
					<dim>1</dim>
					<dim>512</dim>
				</port>
			</output>
		</layer>
		<layer id="224" name="__module._model.decoder.layers.0.norm1/aten::layer_norm/Multiply" type="Const" version="opset1">
			<data element_type="i32" shape="1" offset="25072500" size="4" />
			<output>
				<port id="0" precision="I32">
					<dim>1</dim>
				</port>
			</output>
		</layer>
		<layer id="225" name="__module._model.decoder.layers.0.norm1/aten::layer_norm/MVN" type="MVN" version="opset6">
			<data eps="9.9999997473787516e-06" normalize_variance="true" eps_mode="INSIDE_SQRT" />
			<input>
				<port id="0" precision="FP32">
					<dim>100</dim>
					<dim>1</dim>
					<dim>512</dim>
				</port>
				<port id="1" precision="I32">
					<dim>1</dim>
				</port>
			</input>
			<output>
				<port id="2" precision="FP32">
					<dim>100</dim>
					<dim>1</dim>
					<dim>512</dim>
				</port>
			</output>
		</layer>
		<layer id="226" name="Constant_66080_compressed" type="Const" version="opset1">
			<data element_type="f16" shape="1, 1, 512" offset="25072504" size="1024" />
			<output>
				<port id="0" precision="FP16">
					<dim>1</dim>
					<dim>1</dim>
					<dim>512</dim>
				</port>
			</output>
		</layer>
		<layer id="227" name="Constant_66080" type="Convert" version="opset1">
			<data destination_type="f32" />
			<rt_info>
				<attribute name="decompression" version="0" />
			</rt_info>
			<input>
				<port id="0" precision="FP16">
					<dim>1</dim>
					<dim>1</dim>
					<dim>512</dim>
				</port>
			</input>
			<output>
				<port id="1" precision="FP32">
					<dim>1</dim>
					<dim>1</dim>
					<dim>512</dim>
				</port>
			</output>
		</layer>
		<layer id="228" name="__module._model.decoder.layers.0.norm1/aten::layer_norm/Multiply_1" type="Multiply" version="opset1">
			<data auto_broadcast="numpy" />
			<input>
				<port id="0" precision="FP32">
					<dim>100</dim>
					<dim>1</dim>
					<dim>512</dim>
				</port>
				<port id="1" precision="FP32">
					<dim>1</dim>
					<dim>1</dim>
					<dim>512</dim>
				</port>
			</input>
			<output>
				<port id="2" precision="FP32">
					<dim>100</dim>
					<dim>1</dim>
					<dim>512</dim>
				</port>
			</output>
		</layer>
		<layer id="229" name="Constant_66081_compressed" type="Const" version="opset1">
			<data element_type="f16" shape="1, 1, 512" offset="25073528" size="1024" />
			<output>
				<port id="0" precision="FP16">
					<dim>1</dim>
					<dim>1</dim>
					<dim>512</dim>
				</port>
			</output>
		</layer>
		<layer id="230" name="Constant_66081" type="Convert" version="opset1">
			<data destination_type="f32" />
			<rt_info>
				<attribute name="decompression" version="0" />
			</rt_info>
			<input>
				<port id="0" precision="FP16">
					<dim>1</dim>
					<dim>1</dim>
					<dim>512</dim>
				</port>
			</input>
			<output>
				<port id="1" precision="FP32">
					<dim>1</dim>
					<dim>1</dim>
					<dim>512</dim>
				</port>
			</output>
		</layer>
		<layer id="231" name="__module._model.decoder.layers.0.norm1/aten::layer_norm/Add" type="Add" version="opset1">
			<data auto_broadcast="numpy" />
			<input>
				<port id="0" precision="FP32">
					<dim>100</dim>
					<dim>1</dim>
					<dim>512</dim>
				</port>
				<port id="1" precision="FP32">
					<dim>1</dim>
					<dim>1</dim>
					<dim>512</dim>
				</port>
			</input>
			<output>
				<port id="2" precision="FP32" names="3568,tensor.3">
					<dim>100</dim>
					<dim>1</dim>
					<dim>512</dim>
				</port>
			</output>
		</layer>
		<layer id="232" name="__module._model.decoder.layers.0/aten::add/Add_2" type="Add" version="opset1">
			<data auto_broadcast="numpy" />
			<input>
				<port id="0" precision="FP32">
					<dim>100</dim>
					<dim>1</dim>
					<dim>512</dim>
				</port>
				<port id="1" precision="FP32">
					<dim>100</dim>
					<dim>1</dim>
					<dim>512</dim>
				</port>
			</input>
			<output>
				<port id="2" precision="FP32" names="3569,query">
					<dim>100</dim>
					<dim>1</dim>
					<dim>512</dim>
				</port>
			</output>
		</layer>
		<layer id="233" name="__module._model.explain_attention_layer/prim::ListUnpack/VariadicSplit.0_compressed" type="Const" version="opset1">
			<data element_type="f16" shape="512, 512" offset="25074552" size="524288" />
			<output>
				<port id="0" precision="FP16" names="3582,w_q">
					<dim>512</dim>
					<dim>512</dim>
				</port>
			</output>
		</layer>
		<layer id="234" name="__module._model.explain_attention_layer/prim::ListUnpack/VariadicSplit.0" type="Convert" version="opset1">
			<data destination_type="f32" />
			<rt_info>
				<attribute name="decompression" version="0" />
			</rt_info>
			<input>
				<port id="0" precision="FP16">
					<dim>512</dim>
					<dim>512</dim>
				</port>
			</input>
			<output>
				<port id="1" precision="FP32">
					<dim>512</dim>
					<dim>512</dim>
				</port>
			</output>
		</layer>
		<layer id="235" name="__module._model.explain_attention_layer/aten::linear/MatMul" type="MatMul" version="opset1">
			<data transpose_a="false" transpose_b="true" />
			<input>
				<port id="0" precision="FP32">
					<dim>100</dim>
					<dim>1</dim>
					<dim>512</dim>
				</port>
				<port id="1" precision="FP32">
					<dim>512</dim>
					<dim>512</dim>
				</port>
			</input>
			<output>
				<port id="2" precision="FP32">
					<dim>100</dim>
					<dim>1</dim>
					<dim>512</dim>
				</port>
			</output>
		</layer>
		<layer id="236" name="Constant_66082_compressed" type="Const" version="opset1">
			<data element_type="f16" shape="1, 1, 512" offset="25598840" size="1024" />
			<output>
				<port id="0" precision="FP16">
					<dim>1</dim>
					<dim>1</dim>
					<dim>512</dim>
				</port>
			</output>
		</layer>
		<layer id="237" name="Constant_66082" type="Convert" version="opset1">
			<data destination_type="f32" />
			<rt_info>
				<attribute name="decompression" version="0" />
			</rt_info>
			<input>
				<port id="0" precision="FP16">
					<dim>1</dim>
					<dim>1</dim>
					<dim>512</dim>
				</port>
			</input>
			<output>
				<port id="1" precision="FP32">
					<dim>1</dim>
					<dim>1</dim>
					<dim>512</dim>
				</port>
			</output>
		</layer>
		<layer id="238" name="__module._model.explain_attention_layer/aten::linear/Add" type="Add" version="opset1">
			<data auto_broadcast="numpy" />
			<input>
				<port id="0" precision="FP32">
					<dim>100</dim>
					<dim>1</dim>
					<dim>512</dim>
				</port>
				<port id="1" precision="FP32">
					<dim>1</dim>
					<dim>1</dim>
					<dim>512</dim>
				</port>
			</input>
			<output>
				<port id="2" precision="FP32" names="3589,q.21">
					<dim>100</dim>
					<dim>1</dim>
					<dim>512</dim>
				</port>
			</output>
		</layer>
		<layer id="239" name="Constant_67694" type="Const" version="opset1">
			<data element_type="i64" shape="3" offset="23496486" size="24" />
			<rt_info>
				<attribute name="precise" version="0" />
			</rt_info>
			<output>
				<port id="0" precision="I64">
					<dim>3</dim>
				</port>
			</output>
		</layer>
		<layer id="240" name="__module._model.explain_attention_layer/aten::view/Reshape" type="Reshape" version="opset1">
			<data special_zero="true" />
			<input>
				<port id="0" precision="FP32">
					<dim>100</dim>
					<dim>1</dim>
					<dim>512</dim>
				</port>
				<port id="1" precision="I64">
					<dim>3</dim>
				</port>
			</input>
			<output>
				<port id="2" precision="FP32" names="3595">
					<dim>100</dim>
					<dim>8</dim>
					<dim>64</dim>
				</port>
			</output>
		</layer>
		<layer id="241" name="__module._model.explain_attention_layer/aten::transpose/Constant" type="Const" version="opset1">
			<data element_type="i32" shape="3" offset="23496510" size="12" />
			<output>
				<port id="0" precision="I32">
					<dim>3</dim>
				</port>
			</output>
		</layer>
		<layer id="242" name="__module._model.explain_attention_layer/aten::transpose/Transpose" type="Transpose" version="opset1">
			<input>
				<port id="0" precision="FP32">
					<dim>100</dim>
					<dim>8</dim>
					<dim>64</dim>
				</port>
				<port id="1" precision="I32">
					<dim>3</dim>
				</port>
			</input>
			<output>
				<port id="2" precision="FP32" names="3596,q">
					<dim>8</dim>
					<dim>100</dim>
					<dim>64</dim>
				</port>
			</output>
		</layer>
		<layer id="243" name="Constant_66083_compressed" type="Const" version="opset1">
			<data element_type="f16" shape="1, 1, 1" offset="23496522" size="2" />
			<output>
				<port id="0" precision="FP16">
					<dim>1</dim>
					<dim>1</dim>
					<dim>1</dim>
				</port>
			</output>
		</layer>
		<layer id="244" name="Constant_66083" type="Convert" version="opset1">
			<data destination_type="f32" />
			<rt_info>
				<attribute name="decompression" version="0" />
			</rt_info>
			<input>
				<port id="0" precision="FP16">
					<dim>1</dim>
					<dim>1</dim>
					<dim>1</dim>
				</port>
			</input>
			<output>
				<port id="1" precision="FP32">
					<dim>1</dim>
					<dim>1</dim>
					<dim>1</dim>
				</port>
			</output>
		</layer>
		<layer id="245" name="__module._model.explain_attention_layer/aten::mul/Multiply_1" type="Multiply" version="opset1">
			<data auto_broadcast="numpy" />
			<input>
				<port id="0" precision="FP32">
					<dim>8</dim>
					<dim>100</dim>
					<dim>64</dim>
				</port>
				<port id="1" precision="FP32">
					<dim>1</dim>
					<dim>1</dim>
					<dim>1</dim>
				</port>
			</input>
			<output>
				<port id="2" precision="FP32" names="3609,q_scaled">
					<dim>8</dim>
					<dim>100</dim>
					<dim>64</dim>
				</port>
			</output>
		</layer>
		<layer id="246" name="__module._model/aten::zeros/Convert_1_compressed" type="Const" version="opset1">
			<data element_type="f16" shape="" offset="0" size="2" />
			<output>
				<port id="0" precision="FP16" />
			</output>
		</layer>
		<layer id="247" name="__module._model/aten::zeros/Convert_1" type="Convert" version="opset1">
			<data destination_type="f32" />
			<rt_info>
				<attribute name="decompression" version="0" />
			</rt_info>
			<input>
				<port id="0" precision="FP16" />
			</input>
			<output>
				<port id="1" precision="FP32" />
			</output>
		</layer>
		<layer id="248" name="Constant_290" type="Const" version="opset1">
			<data element_type="i64" shape="1" offset="25599864" size="8" />
			<rt_info>
				<attribute name="precise" version="0" />
			</rt_info>
			<output>
				<port id="0" precision="I64">
					<dim>1</dim>
				</port>
			</output>
		</layer>
		<layer id="249" name="__module._model/prim::ListConstruct/SequenceMark_1" type="Concat" version="opset1">
			<data axis="0" />
			<input>
				<port id="0" precision="I64">
					<dim>1</dim>
				</port>
				<port id="1" precision="I64">
					<dim>1</dim>
				</port>
			</input>
			<output>
				<port id="2" precision="I64">
					<dim>2</dim>
				</port>
			</output>
		</layer>
		<layer id="250" name="__module._model/aten::zeros/Broadcast_1" type="Broadcast" version="opset3">
			<data mode="numpy" />
			<input>
				<port id="0" precision="FP32" />
				<port id="1" precision="I64">
					<dim>2</dim>
				</port>
			</input>
			<output>
				<port id="2" precision="FP32" names="229,230,input.1">
					<dim>1</dim>
					<dim>32</dim>
				</port>
			</output>
		</layer>
		<layer id="251" name="self._model.encoder_latent_input_proj.weight_compressed" type="Const" version="opset1">
			<data element_type="f16" shape="512, 32" offset="25599872" size="32768" />
			<output>
				<port id="0" precision="FP16" names="self._model.encoder_latent_input_proj.weight">
					<dim>512</dim>
					<dim>32</dim>
				</port>
			</output>
		</layer>
		<layer id="252" name="self._model.encoder_latent_input_proj.weight" type="Convert" version="opset1">
			<data destination_type="f32" />
			<rt_info>
				<attribute name="decompression" version="0" />
			</rt_info>
			<input>
				<port id="0" precision="FP16">
					<dim>512</dim>
					<dim>32</dim>
				</port>
			</input>
			<output>
				<port id="1" precision="FP32">
					<dim>512</dim>
					<dim>32</dim>
				</port>
			</output>
		</layer>
		<layer id="253" name="__module._model.encoder_latent_input_proj/aten::linear/MatMul" type="MatMul" version="opset1">
			<data transpose_a="false" transpose_b="true" />
			<input>
				<port id="0" precision="FP32">
					<dim>1</dim>
					<dim>32</dim>
				</port>
				<port id="1" precision="FP32">
					<dim>512</dim>
					<dim>32</dim>
				</port>
			</input>
			<output>
				<port id="2" precision="FP32">
					<dim>1</dim>
					<dim>512</dim>
				</port>
			</output>
		</layer>
		<layer id="254" name="Constant_66084_compressed" type="Const" version="opset1">
			<data element_type="f16" shape="1, 512" offset="25632640" size="1024" />
			<output>
				<port id="0" precision="FP16">
					<dim>1</dim>
					<dim>512</dim>
				</port>
			</output>
		</layer>
		<layer id="255" name="Constant_66084" type="Convert" version="opset1">
			<data destination_type="f32" />
			<rt_info>
				<attribute name="decompression" version="0" />
			</rt_info>
			<input>
				<port id="0" precision="FP16">
					<dim>1</dim>
					<dim>512</dim>
				</port>
			</input>
			<output>
				<port id="1" precision="FP32">
					<dim>1</dim>
					<dim>512</dim>
				</port>
			</output>
		</layer>
		<layer id="256" name="__module._model.encoder_latent_input_proj/aten::linear/Add" type="Add" version="opset1">
			<data auto_broadcast="numpy" />
			<input>
				<port id="0" precision="FP32">
					<dim>1</dim>
					<dim>512</dim>
				</port>
				<port id="1" precision="FP32">
					<dim>1</dim>
					<dim>512</dim>
				</port>
			</input>
			<output>
				<port id="2" precision="FP32" names="233">
					<dim>1</dim>
					<dim>512</dim>
				</port>
			</output>
		</layer>
		<layer id="257" name="__module._model/aten::stack/Constant" type="Const" version="opset1">
			<data element_type="i32" shape="" offset="25633664" size="4" />
			<output>
				<port id="0" precision="I32" />
			</output>
		</layer>
		<layer id="258" name="__module._model/aten::stack/Unsqueeze" type="Unsqueeze" version="opset1">
			<input>
				<port id="0" precision="FP32">
					<dim>1</dim>
					<dim>512</dim>
				</port>
				<port id="1" precision="I32" />
			</input>
			<output>
				<port id="2" precision="FP32">
					<dim>1</dim>
					<dim>1</dim>
					<dim>512</dim>
				</port>
			</output>
		</layer>
		<layer id="259" name="Constant_66073_compressed" type="Const" version="opset1">
			<data element_type="f16" shape="1, 6" offset="25633668" size="12" />
			<output>
				<port id="0" precision="FP16">
					<dim>1</dim>
					<dim>6</dim>
				</port>
			</output>
		</layer>
		<layer id="260" name="Constant_66073" type="Convert" version="opset1">
			<data destination_type="f32" />
			<rt_info>
				<attribute name="decompression" version="0" />
			</rt_info>
			<input>
				<port id="0" precision="FP16">
					<dim>1</dim>
					<dim>6</dim>
				</port>
			</input>
			<output>
				<port id="1" precision="FP32">
					<dim>1</dim>
					<dim>6</dim>
				</port>
			</output>
		</layer>
		<layer id="261" name="__module._input_normalizer/aten::sub/Subtract" type="Add" version="opset1">
			<data auto_broadcast="numpy" />
			<input>
				<port id="0" precision="FP32">
					<dim>1</dim>
					<dim>6</dim>
				</port>
				<port id="1" precision="FP32">
					<dim>1</dim>
					<dim>6</dim>
				</port>
			</input>
			<output>
				<port id="2" precision="FP32" names="38">
					<dim>1</dim>
					<dim>6</dim>
				</port>
			</output>
		</layer>
		<layer id="262" name="Constant_66074_compressed" type="Const" version="opset1">
			<data element_type="f16" shape="1, 6" offset="25633680" size="12" />
			<output>
				<port id="0" precision="FP16">
					<dim>1</dim>
					<dim>6</dim>
				</port>
			</output>
		</layer>
		<layer id="263" name="Constant_66074" type="Convert" version="opset1">
			<data destination_type="f32" />
			<rt_info>
				<attribute name="decompression" version="0" />
			</rt_info>
			<input>
				<port id="0" precision="FP16">
					<dim>1</dim>
					<dim>6</dim>
				</port>
			</input>
			<output>
				<port id="1" precision="FP32">
					<dim>1</dim>
					<dim>6</dim>
				</port>
			</output>
		</layer>
		<layer id="264" name="__module._input_normalizer/aten::div/Divide" type="Divide" version="opset1">
			<data auto_broadcast="numpy" m_pythondiv="true" />
			<input>
				<port id="0" precision="FP32">
					<dim>1</dim>
					<dim>6</dim>
				</port>
				<port id="1" precision="FP32">
					<dim>1</dim>
					<dim>6</dim>
				</port>
			</input>
			<output>
				<port id="2" precision="FP32" names="40,input.3">
					<dim>1</dim>
					<dim>6</dim>
				</port>
			</output>
		</layer>
		<layer id="265" name="self._model.encoder_robot_state_input_proj.weight_compressed" type="Const" version="opset1">
			<data element_type="f16" shape="512, 6" offset="25633692" size="6144" />
			<output>
				<port id="0" precision="FP16" names="self._model.encoder_robot_state_input_proj.weight">
					<dim>512</dim>
					<dim>6</dim>
				</port>
			</output>
		</layer>
		<layer id="266" name="self._model.encoder_robot_state_input_proj.weight" type="Convert" version="opset1">
			<data destination_type="f32" />
			<rt_info>
				<attribute name="decompression" version="0" />
			</rt_info>
			<input>
				<port id="0" precision="FP16">
					<dim>512</dim>
					<dim>6</dim>
				</port>
			</input>
			<output>
				<port id="1" precision="FP32">
					<dim>512</dim>
					<dim>6</dim>
				</port>
			</output>
		</layer>
		<layer id="267" name="__module._model.encoder_robot_state_input_proj/aten::linear/MatMul" type="MatMul" version="opset1">
			<data transpose_a="false" transpose_b="true" />
			<input>
				<port id="0" precision="FP32">
					<dim>1</dim>
					<dim>6</dim>
				</port>
				<port id="1" precision="FP32">
					<dim>512</dim>
					<dim>6</dim>
				</port>
			</input>
			<output>
				<port id="2" precision="FP32">
					<dim>1</dim>
					<dim>512</dim>
				</port>
			</output>
		</layer>
		<layer id="268" name="Constant_66085_compressed" type="Const" version="opset1">
			<data element_type="f16" shape="1, 512" offset="25639836" size="1024" />
			<output>
				<port id="0" precision="FP16">
					<dim>1</dim>
					<dim>512</dim>
				</port>
			</output>
		</layer>
		<layer id="269" name="Constant_66085" type="Convert" version="opset1">
			<data destination_type="f32" />
			<rt_info>
				<attribute name="decompression" version="0" />
			</rt_info>
			<input>
				<port id="0" precision="FP16">
					<dim>1</dim>
					<dim>512</dim>
				</port>
			</input>
			<output>
				<port id="1" precision="FP32">
					<dim>1</dim>
					<dim>512</dim>
				</port>
			</output>
		</layer>
		<layer id="270" name="__module._model.encoder_robot_state_input_proj/aten::linear/Add" type="Add" version="opset1">
			<data auto_broadcast="numpy" />
			<input>
				<port id="0" precision="FP32">
					<dim>1</dim>
					<dim>512</dim>
				</port>
				<port id="1" precision="FP32">
					<dim>1</dim>
					<dim>512</dim>
				</port>
			</input>
			<output>
				<port id="2" precision="FP32" names="239">
					<dim>1</dim>
					<dim>512</dim>
				</port>
			</output>
		</layer>
		<layer id="271" name="__module._model/aten::stack/Unsqueeze_1" type="Unsqueeze" version="opset1">
			<input>
				<port id="0" precision="FP32">
					<dim>1</dim>
					<dim>512</dim>
				</port>
				<port id="1" precision="I32" />
			</input>
			<output>
				<port id="2" precision="FP32">
					<dim>1</dim>
					<dim>1</dim>
					<dim>512</dim>
				</port>
			</output>
		</layer>
		<layer id="272" name="Constant_3425" type="Const" version="opset1">
			<data element_type="i64" shape="4" offset="25640860" size="32" />
			<output>
				<port id="0" precision="I64">
					<dim>4</dim>
				</port>
			</output>
		</layer>
		<layer id="273" name="__module._model/aten::permute/Transpose" type="Transpose" version="opset1">
			<input>
				<port id="0" precision="FP32">
					<dim>1</dim>
					<dim>512</dim>
					<dim>12</dim>
					<dim>12</dim>
				</port>
				<port id="1" precision="I64">
					<dim>4</dim>
				</port>
			</input>
			<output>
				<port id="2" precision="FP32" names="893,x.45">
					<dim>12</dim>
					<dim>12</dim>
					<dim>1</dim>
					<dim>512</dim>
				</port>
			</output>
		</layer>
		<layer id="274" name="Constant_67545" type="Const" version="opset1">
			<data element_type="i64" shape="1" offset="25640892" size="8" />
			<rt_info>
				<attribute name="precise" version="0" />
			</rt_info>
			<output>
				<port id="0" precision="I64">
					<dim>1</dim>
				</port>
			</output>
		</layer>
		<layer id="275" name="Constant_67546" type="Const" version="opset1">
			<data element_type="i64" shape="" offset="22868758" size="8" />
			<rt_info>
				<attribute name="precise" version="0" />
			</rt_info>
			<output>
				<port id="0" precision="I64" />
			</output>
		</layer>
		<layer id="276" name="Gather_67547" type="Gather" version="opset8">
			<data batch_dims="0" />
			<input>
				<port id="0" precision="I64">
					<dim>4</dim>
				</port>
				<port id="1" precision="I64">
					<dim>1</dim>
				</port>
				<port id="2" precision="I64" />
			</input>
			<output>
				<port id="3" precision="I64" names="881,885_1">
					<dim>1</dim>
				</port>
			</output>
		</layer>
		<layer id="277" name="Constant_67549" type="Const" version="opset1">
			<data element_type="i64" shape="1" offset="25640900" size="8" />
			<rt_info>
				<attribute name="precise" version="0" />
			</rt_info>
			<output>
				<port id="0" precision="I64">
					<dim>1</dim>
				</port>
			</output>
		</layer>
		<layer id="278" name="Constant_67550" type="Const" version="opset1">
			<data element_type="i64" shape="" offset="22868758" size="8" />
			<rt_info>
				<attribute name="precise" version="0" />
			</rt_info>
			<output>
				<port id="0" precision="I64" />
			</output>
		</layer>
		<layer id="279" name="Gather_67551" type="Gather" version="opset8">
			<data batch_dims="0" />
			<input>
				<port id="0" precision="I64">
					<dim>4</dim>
				</port>
				<port id="1" precision="I64">
					<dim>1</dim>
				</port>
				<port id="2" precision="I64" />
			</input>
			<output>
				<port id="3" precision="I64" names="883">
					<dim>1</dim>
				</port>
			</output>
		</layer>
		<layer id="280" name="__module._model/aten::mul_/Multiply" type="Multiply" version="opset1">
			<data auto_broadcast="numpy" />
			<input>
				<port id="0" precision="I64">
					<dim>1</dim>
				</port>
				<port id="1" precision="I64">
					<dim>1</dim>
				</port>
			</input>
			<output>
				<port id="2" precision="I64" names="885,887,result.1">
					<dim>1</dim>
				</port>
			</output>
		</layer>
		<layer id="281" name="Constant_3637" type="Const" version="opset1">
			<data element_type="i64" shape="1" offset="22868766" size="8" />
			<rt_info>
				<attribute name="precise" version="0" />
			</rt_info>
			<output>
				<port id="0" precision="I64">
					<dim>1</dim>
				</port>
			</output>
		</layer>
		<layer id="282" name="__module._model/prim::ListConstruct/SequenceMark_2" type="Concat" version="opset1">
			<data axis="0" />
			<input>
				<port id="0" precision="I64">
					<dim>1</dim>
				</port>
				<port id="1" precision="I64">
					<dim>1</dim>
				</port>
				<port id="2" precision="I64">
					<dim>1</dim>
				</port>
			</input>
			<output>
				<port id="3" precision="I64">
					<dim>3</dim>
				</port>
			</output>
		</layer>
		<layer id="283" name="__module._model/aten::reshape/Reshape" type="Reshape" version="opset1">
			<data special_zero="false" />
			<input>
				<port id="0" precision="FP32">
					<dim>12</dim>
					<dim>12</dim>
					<dim>1</dim>
					<dim>512</dim>
				</port>
				<port id="1" precision="I64">
					<dim>3</dim>
				</port>
			</input>
			<output>
				<port id="2" precision="FP32" names="895,cam_features.1">
					<dim>144</dim>
					<dim>1</dim>
					<dim>512</dim>
				</port>
			</output>
		</layer>
		<layer id="284" name="215" type="Const" version="opset1">
			<data element_type="i64" shape="" offset="22868758" size="8" />
			<output>
				<port id="0" precision="I64" names="215" />
			</output>
		</layer>
		<layer id="285" name="__module._model/aten::select/Gather" type="Gather" version="opset8">
			<data batch_dims="0" />
			<input>
				<port id="0" precision="FP32">
					<dim>144</dim>
					<dim>1</dim>
					<dim>512</dim>
				</port>
				<port id="1" precision="I64" />
				<port id="2" precision="I64" />
			</input>
			<output>
				<port id="3" precision="FP32" names="915">
					<dim>1</dim>
					<dim>512</dim>
				</port>
			</output>
		</layer>
		<layer id="286" name="__module._model/aten::stack/Unsqueeze_2" type="Unsqueeze" version="opset1">
			<input>
				<port id="0" precision="FP32">
					<dim>1</dim>
					<dim>512</dim>
				</port>
				<port id="1" precision="I32" />
			</input>
			<output>
				<port id="2" precision="FP32">
					<dim>1</dim>
					<dim>1</dim>
					<dim>512</dim>
				</port>
			</output>
		</layer>
		<layer id="287" name="209" type="Const" version="opset1">
			<data element_type="i64" shape="" offset="25640908" size="8" />
			<output>
				<port id="0" precision="I64" names="209" />
			</output>
		</layer>
		<layer id="288" name="__module._model/aten::select/Gather_1" type="Gather" version="opset8">
			<data batch_dims="0" />
			<input>
				<port id="0" precision="FP32">
					<dim>144</dim>
					<dim>1</dim>
					<dim>512</dim>
				</port>
				<port id="1" precision="I64" />
				<port id="2" precision="I64" />
			</input>
			<output>
				<port id="3" precision="FP32" names="916">
					<dim>1</dim>
					<dim>512</dim>
				</port>
			</output>
		</layer>
		<layer id="289" name="__module._model/aten::stack/Unsqueeze_3" type="Unsqueeze" version="opset1">
			<input>
				<port id="0" precision="FP32">
					<dim>1</dim>
					<dim>512</dim>
				</port>
				<port id="1" precision="I32" />
			</input>
			<output>
				<port id="2" precision="FP32">
					<dim>1</dim>
					<dim>1</dim>
					<dim>512</dim>
				</port>
			</output>
		</layer>
		<layer id="290" name="206" type="Const" version="opset1">
			<data element_type="i64" shape="" offset="25640892" size="8" />
			<output>
				<port id="0" precision="I64" names="206" />
			</output>
		</layer>
		<layer id="291" name="__module._model/aten::select/Gather_2" type="Gather" version="opset8">
			<data batch_dims="0" />
			<input>
				<port id="0" precision="FP32">
					<dim>144</dim>
					<dim>1</dim>
					<dim>512</dim>
				</port>
				<port id="1" precision="I64" />
				<port id="2" precision="I64" />
			</input>
			<output>
				<port id="3" precision="FP32" names="917">
					<dim>1</dim>
					<dim>512</dim>
				</port>
			</output>
		</layer>
		<layer id="292" name="__module._model/aten::stack/Unsqueeze_4" type="Unsqueeze" version="opset1">
			<input>
				<port id="0" precision="FP32">
					<dim>1</dim>
					<dim>512</dim>
				</port>
				<port id="1" precision="I32" />
			</input>
			<output>
				<port id="2" precision="FP32">
					<dim>1</dim>
					<dim>1</dim>
					<dim>512</dim>
				</port>
			</output>
		</layer>
		<layer id="293" name="205" type="Const" version="opset1">
			<data element_type="i64" shape="" offset="25640900" size="8" />
			<output>
				<port id="0" precision="I64" names="205" />
			</output>
		</layer>
		<layer id="294" name="__module._model/aten::select/Gather_3" type="Gather" version="opset8">
			<data batch_dims="0" />
			<input>
				<port id="0" precision="FP32">
					<dim>144</dim>
					<dim>1</dim>
					<dim>512</dim>
				</port>
				<port id="1" precision="I64" />
				<port id="2" precision="I64" />
			</input>
			<output>
				<port id="3" precision="FP32" names="918">
					<dim>1</dim>
					<dim>512</dim>
				</port>
			</output>
		</layer>
		<layer id="295" name="__module._model/aten::stack/Unsqueeze_5" type="Unsqueeze" version="opset1">
			<input>
				<port id="0" precision="FP32">
					<dim>1</dim>
					<dim>512</dim>
				</port>
				<port id="1" precision="I32" />
			</input>
			<output>
				<port id="2" precision="FP32">
					<dim>1</dim>
					<dim>1</dim>
					<dim>512</dim>
				</port>
			</output>
		</layer>
		<layer id="296" name="195" type="Const" version="opset1">
			<data element_type="i64" shape="" offset="25640916" size="8" />
			<output>
				<port id="0" precision="I64" names="195" />
			</output>
		</layer>
		<layer id="297" name="__module._model/aten::select/Gather_4" type="Gather" version="opset8">
			<data batch_dims="0" />
			<input>
				<port id="0" precision="FP32">
					<dim>144</dim>
					<dim>1</dim>
					<dim>512</dim>
				</port>
				<port id="1" precision="I64" />
				<port id="2" precision="I64" />
			</input>
			<output>
				<port id="3" precision="FP32" names="919">
					<dim>1</dim>
					<dim>512</dim>
				</port>
			</output>
		</layer>
		<layer id="298" name="__module._model/aten::stack/Unsqueeze_6" type="Unsqueeze" version="opset1">
			<input>
				<port id="0" precision="FP32">
					<dim>1</dim>
					<dim>512</dim>
				</port>
				<port id="1" precision="I32" />
			</input>
			<output>
				<port id="2" precision="FP32">
					<dim>1</dim>
					<dim>1</dim>
					<dim>512</dim>
				</port>
			</output>
		</layer>
		<layer id="299" name="194" type="Const" version="opset1">
			<data element_type="i64" shape="" offset="25640924" size="8" />
			<output>
				<port id="0" precision="I64" names="194" />
			</output>
		</layer>
		<layer id="300" name="__module._model/aten::select/Gather_5" type="Gather" version="opset8">
			<data batch_dims="0" />
			<input>
				<port id="0" precision="FP32">
					<dim>144</dim>
					<dim>1</dim>
					<dim>512</dim>
				</port>
				<port id="1" precision="I64" />
				<port id="2" precision="I64" />
			</input>
			<output>
				<port id="3" precision="FP32" names="920">
					<dim>1</dim>
					<dim>512</dim>
				</port>
			</output>
		</layer>
		<layer id="301" name="__module._model/aten::stack/Unsqueeze_7" type="Unsqueeze" version="opset1">
			<input>
				<port id="0" precision="FP32">
					<dim>1</dim>
					<dim>512</dim>
				</port>
				<port id="1" precision="I32" />
			</input>
			<output>
				<port id="2" precision="FP32">
					<dim>1</dim>
					<dim>1</dim>
					<dim>512</dim>
				</port>
			</output>
		</layer>
		<layer id="302" name="213" type="Const" version="opset1">
			<data element_type="i64" shape="" offset="25640932" size="8" />
			<output>
				<port id="0" precision="I64" names="213" />
			</output>
		</layer>
		<layer id="303" name="__module._model/aten::select/Gather_6" type="Gather" version="opset8">
			<data batch_dims="0" />
			<input>
				<port id="0" precision="FP32">
					<dim>144</dim>
					<dim>1</dim>
					<dim>512</dim>
				</port>
				<port id="1" precision="I64" />
				<port id="2" precision="I64" />
			</input>
			<output>
				<port id="3" precision="FP32" names="921">
					<dim>1</dim>
					<dim>512</dim>
				</port>
			</output>
		</layer>
		<layer id="304" name="__module._model/aten::stack/Unsqueeze_8" type="Unsqueeze" version="opset1">
			<input>
				<port id="0" precision="FP32">
					<dim>1</dim>
					<dim>512</dim>
				</port>
				<port id="1" precision="I32" />
			</input>
			<output>
				<port id="2" precision="FP32">
					<dim>1</dim>
					<dim>1</dim>
					<dim>512</dim>
				</port>
			</output>
		</layer>
		<layer id="305" name="193" type="Const" version="opset1">
			<data element_type="i64" shape="" offset="25640940" size="8" />
			<output>
				<port id="0" precision="I64" names="193" />
			</output>
		</layer>
		<layer id="306" name="__module._model/aten::select/Gather_7" type="Gather" version="opset8">
			<data batch_dims="0" />
			<input>
				<port id="0" precision="FP32">
					<dim>144</dim>
					<dim>1</dim>
					<dim>512</dim>
				</port>
				<port id="1" precision="I64" />
				<port id="2" precision="I64" />
			</input>
			<output>
				<port id="3" precision="FP32" names="922">
					<dim>1</dim>
					<dim>512</dim>
				</port>
			</output>
		</layer>
		<layer id="307" name="__module._model/aten::stack/Unsqueeze_9" type="Unsqueeze" version="opset1">
			<input>
				<port id="0" precision="FP32">
					<dim>1</dim>
					<dim>512</dim>
				</port>
				<port id="1" precision="I32" />
			</input>
			<output>
				<port id="2" precision="FP32">
					<dim>1</dim>
					<dim>1</dim>
					<dim>512</dim>
				</port>
			</output>
		</layer>
		<layer id="308" name="192" type="Const" version="opset1">
			<data element_type="i64" shape="" offset="25640948" size="8" />
			<output>
				<port id="0" precision="I64" names="192" />
			</output>
		</layer>
		<layer id="309" name="__module._model/aten::select/Gather_8" type="Gather" version="opset8">
			<data batch_dims="0" />
			<input>
				<port id="0" precision="FP32">
					<dim>144</dim>
					<dim>1</dim>
					<dim>512</dim>
				</port>
				<port id="1" precision="I64" />
				<port id="2" precision="I64" />
			</input>
			<output>
				<port id="3" precision="FP32" names="923">
					<dim>1</dim>
					<dim>512</dim>
				</port>
			</output>
		</layer>
		<layer id="310" name="__module._model/aten::stack/Unsqueeze_10" type="Unsqueeze" version="opset1">
			<input>
				<port id="0" precision="FP32">
					<dim>1</dim>
					<dim>512</dim>
				</port>
				<port id="1" precision="I32" />
			</input>
			<output>
				<port id="2" precision="FP32">
					<dim>1</dim>
					<dim>1</dim>
					<dim>512</dim>
				</port>
			</output>
		</layer>
		<layer id="311" name="191" type="Const" version="opset1">
			<data element_type="i64" shape="" offset="25640956" size="8" />
			<output>
				<port id="0" precision="I64" names="191" />
			</output>
		</layer>
		<layer id="312" name="__module._model/aten::select/Gather_9" type="Gather" version="opset8">
			<data batch_dims="0" />
			<input>
				<port id="0" precision="FP32">
					<dim>144</dim>
					<dim>1</dim>
					<dim>512</dim>
				</port>
				<port id="1" precision="I64" />
				<port id="2" precision="I64" />
			</input>
			<output>
				<port id="3" precision="FP32" names="924">
					<dim>1</dim>
					<dim>512</dim>
				</port>
			</output>
		</layer>
		<layer id="313" name="__module._model/aten::stack/Unsqueeze_11" type="Unsqueeze" version="opset1">
			<input>
				<port id="0" precision="FP32">
					<dim>1</dim>
					<dim>512</dim>
				</port>
				<port id="1" precision="I32" />
			</input>
			<output>
				<port id="2" precision="FP32">
					<dim>1</dim>
					<dim>1</dim>
					<dim>512</dim>
				</port>
			</output>
		</layer>
		<layer id="314" name="190" type="Const" version="opset1">
			<data element_type="i64" shape="" offset="25640964" size="8" />
			<output>
				<port id="0" precision="I64" names="190" />
			</output>
		</layer>
		<layer id="315" name="__module._model/aten::select/Gather_10" type="Gather" version="opset8">
			<data batch_dims="0" />
			<input>
				<port id="0" precision="FP32">
					<dim>144</dim>
					<dim>1</dim>
					<dim>512</dim>
				</port>
				<port id="1" precision="I64" />
				<port id="2" precision="I64" />
			</input>
			<output>
				<port id="3" precision="FP32" names="925">
					<dim>1</dim>
					<dim>512</dim>
				</port>
			</output>
		</layer>
		<layer id="316" name="__module._model/aten::stack/Unsqueeze_12" type="Unsqueeze" version="opset1">
			<input>
				<port id="0" precision="FP32">
					<dim>1</dim>
					<dim>512</dim>
				</port>
				<port id="1" precision="I32" />
			</input>
			<output>
				<port id="2" precision="FP32">
					<dim>1</dim>
					<dim>1</dim>
					<dim>512</dim>
				</port>
			</output>
		</layer>
		<layer id="317" name="189" type="Const" version="opset1">
			<data element_type="i64" shape="" offset="25640972" size="8" />
			<output>
				<port id="0" precision="I64" names="189" />
			</output>
		</layer>
		<layer id="318" name="__module._model/aten::select/Gather_11" type="Gather" version="opset8">
			<data batch_dims="0" />
			<input>
				<port id="0" precision="FP32">
					<dim>144</dim>
					<dim>1</dim>
					<dim>512</dim>
				</port>
				<port id="1" precision="I64" />
				<port id="2" precision="I64" />
			</input>
			<output>
				<port id="3" precision="FP32" names="926">
					<dim>1</dim>
					<dim>512</dim>
				</port>
			</output>
		</layer>
		<layer id="319" name="__module._model/aten::stack/Unsqueeze_13" type="Unsqueeze" version="opset1">
			<input>
				<port id="0" precision="FP32">
					<dim>1</dim>
					<dim>512</dim>
				</port>
				<port id="1" precision="I32" />
			</input>
			<output>
				<port id="2" precision="FP32">
					<dim>1</dim>
					<dim>1</dim>
					<dim>512</dim>
				</port>
			</output>
		</layer>
		<layer id="320" name="188" type="Const" version="opset1">
			<data element_type="i64" shape="" offset="25640980" size="8" />
			<output>
				<port id="0" precision="I64" names="188" />
			</output>
		</layer>
		<layer id="321" name="__module._model/aten::select/Gather_12" type="Gather" version="opset8">
			<data batch_dims="0" />
			<input>
				<port id="0" precision="FP32">
					<dim>144</dim>
					<dim>1</dim>
					<dim>512</dim>
				</port>
				<port id="1" precision="I64" />
				<port id="2" precision="I64" />
			</input>
			<output>
				<port id="3" precision="FP32" names="927">
					<dim>1</dim>
					<dim>512</dim>
				</port>
			</output>
		</layer>
		<layer id="322" name="__module._model/aten::stack/Unsqueeze_14" type="Unsqueeze" version="opset1">
			<input>
				<port id="0" precision="FP32">
					<dim>1</dim>
					<dim>512</dim>
				</port>
				<port id="1" precision="I32" />
			</input>
			<output>
				<port id="2" precision="FP32">
					<dim>1</dim>
					<dim>1</dim>
					<dim>512</dim>
				</port>
			</output>
		</layer>
		<layer id="323" name="187" type="Const" version="opset1">
			<data element_type="i64" shape="" offset="25640988" size="8" />
			<output>
				<port id="0" precision="I64" names="187" />
			</output>
		</layer>
		<layer id="324" name="__module._model/aten::select/Gather_13" type="Gather" version="opset8">
			<data batch_dims="0" />
			<input>
				<port id="0" precision="FP32">
					<dim>144</dim>
					<dim>1</dim>
					<dim>512</dim>
				</port>
				<port id="1" precision="I64" />
				<port id="2" precision="I64" />
			</input>
			<output>
				<port id="3" precision="FP32" names="928">
					<dim>1</dim>
					<dim>512</dim>
				</port>
			</output>
		</layer>
		<layer id="325" name="__module._model/aten::stack/Unsqueeze_15" type="Unsqueeze" version="opset1">
			<input>
				<port id="0" precision="FP32">
					<dim>1</dim>
					<dim>512</dim>
				</port>
				<port id="1" precision="I32" />
			</input>
			<output>
				<port id="2" precision="FP32">
					<dim>1</dim>
					<dim>1</dim>
					<dim>512</dim>
				</port>
			</output>
		</layer>
		<layer id="326" name="186" type="Const" version="opset1">
			<data element_type="i64" shape="" offset="25640996" size="8" />
			<output>
				<port id="0" precision="I64" names="186" />
			</output>
		</layer>
		<layer id="327" name="__module._model/aten::select/Gather_14" type="Gather" version="opset8">
			<data batch_dims="0" />
			<input>
				<port id="0" precision="FP32">
					<dim>144</dim>
					<dim>1</dim>
					<dim>512</dim>
				</port>
				<port id="1" precision="I64" />
				<port id="2" precision="I64" />
			</input>
			<output>
				<port id="3" precision="FP32" names="929">
					<dim>1</dim>
					<dim>512</dim>
				</port>
			</output>
		</layer>
		<layer id="328" name="__module._model/aten::stack/Unsqueeze_16" type="Unsqueeze" version="opset1">
			<input>
				<port id="0" precision="FP32">
					<dim>1</dim>
					<dim>512</dim>
				</port>
				<port id="1" precision="I32" />
			</input>
			<output>
				<port id="2" precision="FP32">
					<dim>1</dim>
					<dim>1</dim>
					<dim>512</dim>
				</port>
			</output>
		</layer>
		<layer id="329" name="185" type="Const" version="opset1">
			<data element_type="i64" shape="" offset="25641004" size="8" />
			<output>
				<port id="0" precision="I64" names="185" />
			</output>
		</layer>
		<layer id="330" name="__module._model/aten::select/Gather_15" type="Gather" version="opset8">
			<data batch_dims="0" />
			<input>
				<port id="0" precision="FP32">
					<dim>144</dim>
					<dim>1</dim>
					<dim>512</dim>
				</port>
				<port id="1" precision="I64" />
				<port id="2" precision="I64" />
			</input>
			<output>
				<port id="3" precision="FP32" names="930">
					<dim>1</dim>
					<dim>512</dim>
				</port>
			</output>
		</layer>
		<layer id="331" name="__module._model/aten::stack/Unsqueeze_17" type="Unsqueeze" version="opset1">
			<input>
				<port id="0" precision="FP32">
					<dim>1</dim>
					<dim>512</dim>
				</port>
				<port id="1" precision="I32" />
			</input>
			<output>
				<port id="2" precision="FP32">
					<dim>1</dim>
					<dim>1</dim>
					<dim>512</dim>
				</port>
			</output>
		</layer>
		<layer id="332" name="184" type="Const" version="opset1">
			<data element_type="i64" shape="" offset="25641012" size="8" />
			<output>
				<port id="0" precision="I64" names="184" />
			</output>
		</layer>
		<layer id="333" name="__module._model/aten::select/Gather_16" type="Gather" version="opset8">
			<data batch_dims="0" />
			<input>
				<port id="0" precision="FP32">
					<dim>144</dim>
					<dim>1</dim>
					<dim>512</dim>
				</port>
				<port id="1" precision="I64" />
				<port id="2" precision="I64" />
			</input>
			<output>
				<port id="3" precision="FP32" names="931">
					<dim>1</dim>
					<dim>512</dim>
				</port>
			</output>
		</layer>
		<layer id="334" name="__module._model/aten::stack/Unsqueeze_18" type="Unsqueeze" version="opset1">
			<input>
				<port id="0" precision="FP32">
					<dim>1</dim>
					<dim>512</dim>
				</port>
				<port id="1" precision="I32" />
			</input>
			<output>
				<port id="2" precision="FP32">
					<dim>1</dim>
					<dim>1</dim>
					<dim>512</dim>
				</port>
			</output>
		</layer>
		<layer id="335" name="183" type="Const" version="opset1">
			<data element_type="i64" shape="" offset="25641020" size="8" />
			<output>
				<port id="0" precision="I64" names="183" />
			</output>
		</layer>
		<layer id="336" name="__module._model/aten::select/Gather_17" type="Gather" version="opset8">
			<data batch_dims="0" />
			<input>
				<port id="0" precision="FP32">
					<dim>144</dim>
					<dim>1</dim>
					<dim>512</dim>
				</port>
				<port id="1" precision="I64" />
				<port id="2" precision="I64" />
			</input>
			<output>
				<port id="3" precision="FP32" names="932">
					<dim>1</dim>
					<dim>512</dim>
				</port>
			</output>
		</layer>
		<layer id="337" name="__module._model/aten::stack/Unsqueeze_19" type="Unsqueeze" version="opset1">
			<input>
				<port id="0" precision="FP32">
					<dim>1</dim>
					<dim>512</dim>
				</port>
				<port id="1" precision="I32" />
			</input>
			<output>
				<port id="2" precision="FP32">
					<dim>1</dim>
					<dim>1</dim>
					<dim>512</dim>
				</port>
			</output>
		</layer>
		<layer id="338" name="182" type="Const" version="opset1">
			<data element_type="i64" shape="" offset="25641028" size="8" />
			<output>
				<port id="0" precision="I64" names="182" />
			</output>
		</layer>
		<layer id="339" name="__module._model/aten::select/Gather_18" type="Gather" version="opset8">
			<data batch_dims="0" />
			<input>
				<port id="0" precision="FP32">
					<dim>144</dim>
					<dim>1</dim>
					<dim>512</dim>
				</port>
				<port id="1" precision="I64" />
				<port id="2" precision="I64" />
			</input>
			<output>
				<port id="3" precision="FP32" names="933">
					<dim>1</dim>
					<dim>512</dim>
				</port>
			</output>
		</layer>
		<layer id="340" name="__module._model/aten::stack/Unsqueeze_20" type="Unsqueeze" version="opset1">
			<input>
				<port id="0" precision="FP32">
					<dim>1</dim>
					<dim>512</dim>
				</port>
				<port id="1" precision="I32" />
			</input>
			<output>
				<port id="2" precision="FP32">
					<dim>1</dim>
					<dim>1</dim>
					<dim>512</dim>
				</port>
			</output>
		</layer>
		<layer id="341" name="181" type="Const" version="opset1">
			<data element_type="i64" shape="" offset="25641036" size="8" />
			<output>
				<port id="0" precision="I64" names="181" />
			</output>
		</layer>
		<layer id="342" name="__module._model/aten::select/Gather_19" type="Gather" version="opset8">
			<data batch_dims="0" />
			<input>
				<port id="0" precision="FP32">
					<dim>144</dim>
					<dim>1</dim>
					<dim>512</dim>
				</port>
				<port id="1" precision="I64" />
				<port id="2" precision="I64" />
			</input>
			<output>
				<port id="3" precision="FP32" names="934">
					<dim>1</dim>
					<dim>512</dim>
				</port>
			</output>
		</layer>
		<layer id="343" name="__module._model/aten::stack/Unsqueeze_21" type="Unsqueeze" version="opset1">
			<input>
				<port id="0" precision="FP32">
					<dim>1</dim>
					<dim>512</dim>
				</port>
				<port id="1" precision="I32" />
			</input>
			<output>
				<port id="2" precision="FP32">
					<dim>1</dim>
					<dim>1</dim>
					<dim>512</dim>
				</port>
			</output>
		</layer>
		<layer id="344" name="180" type="Const" version="opset1">
			<data element_type="i64" shape="" offset="25641044" size="8" />
			<output>
				<port id="0" precision="I64" names="180" />
			</output>
		</layer>
		<layer id="345" name="__module._model/aten::select/Gather_20" type="Gather" version="opset8">
			<data batch_dims="0" />
			<input>
				<port id="0" precision="FP32">
					<dim>144</dim>
					<dim>1</dim>
					<dim>512</dim>
				</port>
				<port id="1" precision="I64" />
				<port id="2" precision="I64" />
			</input>
			<output>
…
		<edge from-layer="2480" from-port="3" to-layer="2481" to-port="0" />
		<edge from-layer="2481" from-port="2" to-layer="2750" to-port="299" />
		<edge from-layer="2482" from-port="3" to-layer="2483" to-port="0" />
		<edge from-layer="2483" from-port="2" to-layer="2750" to-port="300" />
		<edge from-layer="2484" from-port="3" to-layer="2485" to-port="0" />
		<edge from-layer="2485" from-port="2" to-layer="2750" to-port="301" />
		<edge from-layer="2486" from-port="3" to-layer="2487" to-port="0" />
		<edge from-layer="2487" from-port="2" to-layer="2750" to-port="302" />
		<edge from-layer="2488" from-port="3" to-layer="2489" to-port="0" />
		<edge from-layer="2489" from-port="2" to-layer="2750" to-port="303" />
		<edge from-layer="2490" from-port="3" to-layer="2491" to-port="0" />
		<edge from-layer="2491" from-port="2" to-layer="2750" to-port="304" />
		<edge from-layer="2492" from-port="3" to-layer="2493" to-port="0" />
		<edge from-layer="2493" from-port="2" to-layer="2750" to-port="305" />
		<edge from-layer="2494" from-port="3" to-layer="2495" to-port="0" />
		<edge from-layer="2495" from-port="2" to-layer="2750" to-port="306" />
		<edge from-layer="2496" from-port="3" to-layer="2497" to-port="0" />
		<edge from-layer="2497" from-port="2" to-layer="2750" to-port="307" />
		<edge from-layer="2498" from-port="3" to-layer="2499" to-port="0" />
		<edge from-layer="2499" from-port="2" to-layer="2750" to-port="308" />
		<edge from-layer="2500" from-port="3" to-layer="2501" to-port="0" />
		<edge from-layer="2501" from-port="2" to-layer="2750" to-port="309" />
		<edge from-layer="2502" from-port="3" to-layer="2503" to-port="0" />
		<edge from-layer="2503" from-port="2" to-layer="2750" to-port="310" />
		<edge from-layer="2504" from-port="3" to-layer="2505" to-port="0" />
		<edge from-layer="2505" from-port="2" to-layer="2750" to-port="311" />
		<edge from-layer="2506" from-port="3" to-layer="2507" to-port="0" />
		<edge from-layer="2507" from-port="2" to-layer="2750" to-port="312" />
		<edge from-layer="2508" from-port="3" to-layer="2509" to-port="0" />
		<edge from-layer="2509" from-port="2" to-layer="2750" to-port="313" />
		<edge from-layer="2510" from-port="3" to-layer="2511" to-port="0" />
		<edge from-layer="2511" from-port="2" to-layer="2750" to-port="314" />
		<edge from-layer="2512" from-port="3" to-layer="2513" to-port="0" />
		<edge from-layer="2513" from-port="2" to-layer="2750" to-port="315" />
		<edge from-layer="2514" from-port="3" to-layer="2515" to-port="0" />
		<edge from-layer="2515" from-port="2" to-layer="2750" to-port="316" />
		<edge from-layer="2516" from-port="3" to-layer="2517" to-port="0" />
		<edge from-layer="2517" from-port="2" to-layer="2750" to-port="317" />
		<edge from-layer="2518" from-port="3" to-layer="2519" to-port="0" />
		<edge from-layer="2519" from-port="2" to-layer="2750" to-port="318" />
		<edge from-layer="2520" from-port="3" to-layer="2521" to-port="0" />
		<edge from-layer="2521" from-port="2" to-layer="2750" to-port="319" />
		<edge from-layer="2522" from-port="3" to-layer="2523" to-port="0" />
		<edge from-layer="2523" from-port="2" to-layer="2750" to-port="320" />
		<edge from-layer="2524" from-port="3" to-layer="2525" to-port="0" />
		<edge from-layer="2525" from-port="2" to-layer="2750" to-port="321" />
		<edge from-layer="2526" from-port="3" to-layer="2527" to-port="0" />
		<edge from-layer="2527" from-port="2" to-layer="2750" to-port="322" />
		<edge from-layer="2528" from-port="3" to-layer="2529" to-port="0" />
		<edge from-layer="2529" from-port="2" to-layer="2750" to-port="323" />
		<edge from-layer="2530" from-port="3" to-layer="2531" to-port="0" />
		<edge from-layer="2531" from-port="2" to-layer="2750" to-port="324" />
		<edge from-layer="2532" from-port="3" to-layer="2533" to-port="0" />
		<edge from-layer="2533" from-port="2" to-layer="2750" to-port="325" />
		<edge from-layer="2534" from-port="3" to-layer="2535" to-port="0" />
		<edge from-layer="2535" from-port="2" to-layer="2750" to-port="326" />
		<edge from-layer="2536" from-port="3" to-layer="2537" to-port="0" />
		<edge from-layer="2537" from-port="2" to-layer="2750" to-port="327" />
		<edge from-layer="2538" from-port="3" to-layer="2539" to-port="0" />
		<edge from-layer="2539" from-port="2" to-layer="2750" to-port="328" />
		<edge from-layer="2540" from-port="3" to-layer="2541" to-port="0" />
		<edge from-layer="2541" from-port="2" to-layer="2750" to-port="329" />
		<edge from-layer="2542" from-port="3" to-layer="2543" to-port="0" />
		<edge from-layer="2543" from-port="2" to-layer="2750" to-port="330" />
		<edge from-layer="2544" from-port="3" to-layer="2545" to-port="0" />
		<edge from-layer="2545" from-port="2" to-layer="2750" to-port="331" />
		<edge from-layer="2546" from-port="3" to-layer="2547" to-port="0" />
		<edge from-layer="2547" from-port="2" to-layer="2750" to-port="332" />
		<edge from-layer="2548" from-port="3" to-layer="2549" to-port="0" />
		<edge from-layer="2549" from-port="2" to-layer="2750" to-port="333" />
		<edge from-layer="2550" from-port="3" to-layer="2551" to-port="0" />
		<edge from-layer="2551" from-port="2" to-layer="2750" to-port="334" />
		<edge from-layer="2552" from-port="3" to-layer="2553" to-port="0" />
		<edge from-layer="2553" from-port="2" to-layer="2750" to-port="335" />
		<edge from-layer="2554" from-port="3" to-layer="2555" to-port="0" />
		<edge from-layer="2555" from-port="2" to-layer="2750" to-port="336" />
		<edge from-layer="2556" from-port="3" to-layer="2557" to-port="0" />
		<edge from-layer="2557" from-port="2" to-layer="2750" to-port="337" />
		<edge from-layer="2558" from-port="3" to-layer="2559" to-port="0" />
		<edge from-layer="2559" from-port="2" to-layer="2750" to-port="338" />
		<edge from-layer="2560" from-port="3" to-layer="2561" to-port="0" />
		<edge from-layer="2561" from-port="2" to-layer="2750" to-port="339" />
		<edge from-layer="2562" from-port="3" to-layer="2563" to-port="0" />
		<edge from-layer="2563" from-port="2" to-layer="2750" to-port="340" />
		<edge from-layer="2564" from-port="3" to-layer="2565" to-port="0" />
		<edge from-layer="2565" from-port="2" to-layer="2750" to-port="341" />
		<edge from-layer="2566" from-port="3" to-layer="2567" to-port="0" />
		<edge from-layer="2567" from-port="2" to-layer="2750" to-port="342" />
		<edge from-layer="2568" from-port="3" to-layer="2569" to-port="0" />
		<edge from-layer="2569" from-port="2" to-layer="2750" to-port="343" />
		<edge from-layer="2570" from-port="3" to-layer="2571" to-port="0" />
		<edge from-layer="2571" from-port="2" to-layer="2750" to-port="344" />
		<edge from-layer="2572" from-port="3" to-layer="2573" to-port="0" />
		<edge from-layer="2573" from-port="2" to-layer="2750" to-port="345" />
		<edge from-layer="2574" from-port="3" to-layer="2575" to-port="0" />
		<edge from-layer="2575" from-port="2" to-layer="2750" to-port="346" />
		<edge from-layer="2576" from-port="3" to-layer="2577" to-port="0" />
		<edge from-layer="2577" from-port="2" to-layer="2750" to-port="347" />
		<edge from-layer="2578" from-port="3" to-layer="2579" to-port="0" />
		<edge from-layer="2579" from-port="2" to-layer="2750" to-port="348" />
		<edge from-layer="2580" from-port="3" to-layer="2581" to-port="0" />
		<edge from-layer="2581" from-port="2" to-layer="2750" to-port="349" />
		<edge from-layer="2582" from-port="3" to-layer="2583" to-port="0" />
		<edge from-layer="2583" from-port="2" to-layer="2750" to-port="350" />
		<edge from-layer="2584" from-port="3" to-layer="2585" to-port="0" />
		<edge from-layer="2585" from-port="2" to-layer="2750" to-port="351" />
		<edge from-layer="2586" from-port="3" to-layer="2587" to-port="0" />
		<edge from-layer="2587" from-port="2" to-layer="2750" to-port="352" />
		<edge from-layer="2588" from-port="3" to-layer="2589" to-port="0" />
		<edge from-layer="2589" from-port="2" to-layer="2750" to-port="353" />
		<edge from-layer="2590" from-port="3" to-layer="2591" to-port="0" />
		<edge from-layer="2591" from-port="2" to-layer="2750" to-port="354" />
		<edge from-layer="2592" from-port="3" to-layer="2593" to-port="0" />
		<edge from-layer="2593" from-port="2" to-layer="2750" to-port="355" />
		<edge from-layer="2594" from-port="3" to-layer="2595" to-port="0" />
		<edge from-layer="2595" from-port="2" to-layer="2750" to-port="356" />
		<edge from-layer="2596" from-port="3" to-layer="2597" to-port="0" />
		<edge from-layer="2597" from-port="2" to-layer="2750" to-port="357" />
		<edge from-layer="2598" from-port="3" to-layer="2599" to-port="0" />
		<edge from-layer="2599" from-port="2" to-layer="2750" to-port="358" />
		<edge from-layer="2600" from-port="3" to-layer="2601" to-port="0" />
		<edge from-layer="2601" from-port="2" to-layer="2750" to-port="359" />
		<edge from-layer="2602" from-port="3" to-layer="2603" to-port="0" />
		<edge from-layer="2603" from-port="2" to-layer="2750" to-port="360" />
		<edge from-layer="2604" from-port="3" to-layer="2605" to-port="0" />
		<edge from-layer="2605" from-port="2" to-layer="2750" to-port="361" />
		<edge from-layer="2606" from-port="3" to-layer="2607" to-port="0" />
		<edge from-layer="2607" from-port="2" to-layer="2750" to-port="362" />
		<edge from-layer="2608" from-port="3" to-layer="2609" to-port="0" />
		<edge from-layer="2609" from-port="2" to-layer="2750" to-port="363" />
		<edge from-layer="2610" from-port="3" to-layer="2611" to-port="0" />
		<edge from-layer="2611" from-port="2" to-layer="2750" to-port="364" />
		<edge from-layer="2612" from-port="3" to-layer="2613" to-port="0" />
		<edge from-layer="2613" from-port="2" to-layer="2750" to-port="365" />
		<edge from-layer="2614" from-port="3" to-layer="2615" to-port="0" />
		<edge from-layer="2615" from-port="2" to-layer="2750" to-port="366" />
		<edge from-layer="2616" from-port="3" to-layer="2617" to-port="0" />
		<edge from-layer="2617" from-port="2" to-layer="2750" to-port="367" />
		<edge from-layer="2618" from-port="3" to-layer="2619" to-port="0" />
		<edge from-layer="2619" from-port="2" to-layer="2750" to-port="368" />
		<edge from-layer="2620" from-port="3" to-layer="2621" to-port="0" />
		<edge from-layer="2621" from-port="2" to-layer="2750" to-port="369" />
		<edge from-layer="2622" from-port="3" to-layer="2623" to-port="0" />
		<edge from-layer="2623" from-port="2" to-layer="2750" to-port="370" />
		<edge from-layer="2624" from-port="3" to-layer="2625" to-port="0" />
		<edge from-layer="2625" from-port="2" to-layer="2750" to-port="371" />
		<edge from-layer="2626" from-port="3" to-layer="2627" to-port="0" />
		<edge from-layer="2627" from-port="2" to-layer="2750" to-port="372" />
		<edge from-layer="2628" from-port="3" to-layer="2629" to-port="0" />
		<edge from-layer="2629" from-port="2" to-layer="2750" to-port="373" />
		<edge from-layer="2630" from-port="3" to-layer="2631" to-port="0" />
		<edge from-layer="2631" from-port="2" to-layer="2750" to-port="374" />
		<edge from-layer="2632" from-port="3" to-layer="2633" to-port="0" />
		<edge from-layer="2633" from-port="2" to-layer="2750" to-port="375" />
		<edge from-layer="2634" from-port="3" to-layer="2635" to-port="0" />
		<edge from-layer="2635" from-port="2" to-layer="2750" to-port="376" />
		<edge from-layer="2636" from-port="3" to-layer="2637" to-port="0" />
		<edge from-layer="2637" from-port="2" to-layer="2750" to-port="377" />
		<edge from-layer="2638" from-port="3" to-layer="2639" to-port="0" />
		<edge from-layer="2639" from-port="2" to-layer="2750" to-port="378" />
		<edge from-layer="2640" from-port="3" to-layer="2641" to-port="0" />
		<edge from-layer="2641" from-port="2" to-layer="2750" to-port="379" />
		<edge from-layer="2642" from-port="3" to-layer="2643" to-port="0" />
		<edge from-layer="2643" from-port="2" to-layer="2750" to-port="380" />
		<edge from-layer="2644" from-port="3" to-layer="2645" to-port="0" />
		<edge from-layer="2645" from-port="2" to-layer="2750" to-port="381" />
		<edge from-layer="2646" from-port="3" to-layer="2647" to-port="0" />
		<edge from-layer="2647" from-port="2" to-layer="2750" to-port="382" />
		<edge from-layer="2648" from-port="3" to-layer="2649" to-port="0" />
		<edge from-layer="2649" from-port="2" to-layer="2750" to-port="383" />
		<edge from-layer="2650" from-port="3" to-layer="2651" to-port="0" />
		<edge from-layer="2651" from-port="2" to-layer="2750" to-port="384" />
		<edge from-layer="2652" from-port="3" to-layer="2653" to-port="0" />
		<edge from-layer="2653" from-port="2" to-layer="2750" to-port="385" />
		<edge from-layer="2654" from-port="3" to-layer="2655" to-port="0" />
		<edge from-layer="2655" from-port="2" to-layer="2750" to-port="386" />
		<edge from-layer="2656" from-port="3" to-layer="2657" to-port="0" />
		<edge from-layer="2657" from-port="2" to-layer="2750" to-port="387" />
		<edge from-layer="2658" from-port="3" to-layer="2659" to-port="0" />
		<edge from-layer="2659" from-port="2" to-layer="2750" to-port="388" />
		<edge from-layer="2660" from-port="3" to-layer="2661" to-port="0" />
		<edge from-layer="2661" from-port="2" to-layer="2750" to-port="389" />
		<edge from-layer="2662" from-port="3" to-layer="2663" to-port="0" />
		<edge from-layer="2663" from-port="2" to-layer="2750" to-port="390" />
		<edge from-layer="2664" from-port="3" to-layer="2665" to-port="0" />
		<edge from-layer="2665" from-port="2" to-layer="2750" to-port="391" />
		<edge from-layer="2666" from-port="3" to-layer="2667" to-port="0" />
		<edge from-layer="2667" from-port="2" to-layer="2750" to-port="392" />
		<edge from-layer="2668" from-port="3" to-layer="2669" to-port="0" />
		<edge from-layer="2669" from-port="2" to-layer="2750" to-port="393" />
		<edge from-layer="2670" from-port="3" to-layer="2671" to-port="0" />
		<edge from-layer="2671" from-port="2" to-layer="2750" to-port="394" />
		<edge from-layer="2672" from-port="3" to-layer="2673" to-port="0" />
		<edge from-layer="2673" from-port="2" to-layer="2750" to-port="395" />
		<edge from-layer="2674" from-port="3" to-layer="2675" to-port="0" />
		<edge from-layer="2675" from-port="2" to-layer="2750" to-port="396" />
		<edge from-layer="2676" from-port="3" to-layer="2677" to-port="0" />
		<edge from-layer="2677" from-port="2" to-layer="2750" to-port="397" />
		<edge from-layer="2678" from-port="3" to-layer="2679" to-port="0" />
		<edge from-layer="2679" from-port="2" to-layer="2750" to-port="398" />
		<edge from-layer="2680" from-port="3" to-layer="2681" to-port="0" />
		<edge from-layer="2681" from-port="2" to-layer="2750" to-port="399" />
		<edge from-layer="2682" from-port="3" to-layer="2683" to-port="0" />
		<edge from-layer="2683" from-port="2" to-layer="2750" to-port="400" />
		<edge from-layer="2684" from-port="3" to-layer="2685" to-port="0" />
		<edge from-layer="2685" from-port="2" to-layer="2750" to-port="401" />
		<edge from-layer="2686" from-port="3" to-layer="2687" to-port="0" />
		<edge from-layer="2687" from-port="2" to-layer="2750" to-port="402" />
		<edge from-layer="2688" from-port="3" to-layer="2689" to-port="0" />
		<edge from-layer="2689" from-port="2" to-layer="2750" to-port="403" />
		<edge from-layer="2690" from-port="3" to-layer="2691" to-port="0" />
		<edge from-layer="2691" from-port="2" to-layer="2750" to-port="404" />
		<edge from-layer="2692" from-port="3" to-layer="2693" to-port="0" />
		<edge from-layer="2693" from-port="2" to-layer="2750" to-port="405" />
		<edge from-layer="2694" from-port="3" to-layer="2695" to-port="0" />
		<edge from-layer="2695" from-port="2" to-layer="2750" to-port="406" />
		<edge from-layer="2696" from-port="3" to-layer="2697" to-port="0" />
		<edge from-layer="2697" from-port="2" to-layer="2750" to-port="407" />
		<edge from-layer="2698" from-port="3" to-layer="2699" to-port="0" />
		<edge from-layer="2699" from-port="2" to-layer="2750" to-port="408" />
		<edge from-layer="2700" from-port="3" to-layer="2701" to-port="0" />
		<edge from-layer="2701" from-port="2" to-layer="2750" to-port="409" />
		<edge from-layer="2702" from-port="3" to-layer="2703" to-port="0" />
		<edge from-layer="2703" from-port="2" to-layer="2750" to-port="410" />
		<edge from-layer="2704" from-port="3" to-layer="2705" to-port="0" />
		<edge from-layer="2705" from-port="2" to-layer="2750" to-port="411" />
		<edge from-layer="2706" from-port="3" to-layer="2707" to-port="0" />
		<edge from-layer="2707" from-port="2" to-layer="2750" to-port="412" />
		<edge from-layer="2708" from-port="3" to-layer="2709" to-port="0" />
		<edge from-layer="2709" from-port="2" to-layer="2750" to-port="413" />
		<edge from-layer="2710" from-port="3" to-layer="2711" to-port="0" />
		<edge from-layer="2711" from-port="2" to-layer="2750" to-port="414" />
		<edge from-layer="2712" from-port="3" to-layer="2713" to-port="0" />
		<edge from-layer="2713" from-port="2" to-layer="2750" to-port="415" />
		<edge from-layer="2714" from-port="3" to-layer="2715" to-port="0" />
		<edge from-layer="2715" from-port="2" to-layer="2750" to-port="416" />
		<edge from-layer="2716" from-port="3" to-layer="2717" to-port="0" />
		<edge from-layer="2717" from-port="2" to-layer="2750" to-port="417" />
		<edge from-layer="2718" from-port="3" to-layer="2719" to-port="0" />
		<edge from-layer="2719" from-port="2" to-layer="2750" to-port="418" />
		<edge from-layer="2720" from-port="3" to-layer="2721" to-port="0" />
		<edge from-layer="2721" from-port="2" to-layer="2750" to-port="419" />
		<edge from-layer="2722" from-port="3" to-layer="2723" to-port="0" />
		<edge from-layer="2723" from-port="2" to-layer="2750" to-port="420" />
		<edge from-layer="2724" from-port="3" to-layer="2725" to-port="0" />
		<edge from-layer="2725" from-port="2" to-layer="2750" to-port="421" />
		<edge from-layer="2726" from-port="3" to-layer="2727" to-port="0" />
		<edge from-layer="2727" from-port="2" to-layer="2750" to-port="422" />
		<edge from-layer="2728" from-port="3" to-layer="2729" to-port="0" />
		<edge from-layer="2729" from-port="2" to-layer="2750" to-port="423" />
		<edge from-layer="2730" from-port="3" to-layer="2731" to-port="0" />
		<edge from-layer="2731" from-port="2" to-layer="2750" to-port="424" />
		<edge from-layer="2732" from-port="3" to-layer="2733" to-port="0" />
		<edge from-layer="2733" from-port="2" to-layer="2750" to-port="425" />
		<edge from-layer="2734" from-port="3" to-layer="2735" to-port="0" />
		<edge from-layer="2735" from-port="2" to-layer="2750" to-port="426" />
		<edge from-layer="2736" from-port="3" to-layer="2737" to-port="0" />
		<edge from-layer="2737" from-port="2" to-layer="2750" to-port="427" />
		<edge from-layer="2738" from-port="3" to-layer="2739" to-port="0" />
		<edge from-layer="2739" from-port="2" to-layer="2750" to-port="428" />
		<edge from-layer="2740" from-port="3" to-layer="2741" to-port="0" />
		<edge from-layer="2741" from-port="2" to-layer="2750" to-port="429" />
		<edge from-layer="2742" from-port="3" to-layer="2743" to-port="0" />
		<edge from-layer="2743" from-port="2" to-layer="2750" to-port="430" />
		<edge from-layer="2744" from-port="3" to-layer="2745" to-port="0" />
		<edge from-layer="2745" from-port="2" to-layer="2750" to-port="431" />
		<edge from-layer="2746" from-port="3" to-layer="2747" to-port="0" />
		<edge from-layer="2747" from-port="2" to-layer="2750" to-port="432" />
		<edge from-layer="2748" from-port="3" to-layer="2749" to-port="0" />
		<edge from-layer="2749" from-port="2" to-layer="2750" to-port="433" />
		<edge from-layer="2750" from-port="434" to-layer="2831" to-port="1" />
		<edge from-layer="2750" from-port="434" to-layer="2751" to-port="1" />
		<edge from-layer="2750" from-port="434" to-layer="3071" to-port="1" />
		<edge from-layer="2750" from-port="434" to-layer="2991" to-port="1" />
		<edge from-layer="2750" from-port="434" to-layer="2911" to-port="1" />
		<edge from-layer="2751" from-port="2" to-layer="2754" to-port="0" />
		<edge from-layer="2751" from-port="2" to-layer="2767" to-port="0" />
		<edge from-layer="2752" from-port="0" to-layer="2753" to-port="0" />
		<edge from-layer="2753" from-port="1" to-layer="2754" to-port="1" />
		<edge from-layer="2754" from-port="2" to-layer="2757" to-port="0" />
		<edge from-layer="2755" from-port="0" to-layer="2756" to-port="0" />
		<edge from-layer="2756" from-port="1" to-layer="2757" to-port="1" />
		<edge from-layer="2757" from-port="2" to-layer="2759" to-port="0" />
		<edge from-layer="2758" from-port="0" to-layer="2759" to-port="1" />
		<edge from-layer="2759" from-port="2" to-layer="2761" to-port="0" />
		<edge from-layer="2760" from-port="0" to-layer="2761" to-port="1" />
		<edge from-layer="2761" from-port="2" to-layer="2764" to-port="0" />
		<edge from-layer="2762" from-port="0" to-layer="2763" to-port="0" />
		<edge from-layer="2763" from-port="1" to-layer="2764" to-port="1" />
		<edge from-layer="2764" from-port="2" to-layer="2775" to-port="0" />
		<edge from-layer="2765" from-port="0" to-layer="2766" to-port="0" />
		<edge from-layer="2766" from-port="1" to-layer="2767" to-port="1" />
		<edge from-layer="2767" from-port="2" to-layer="2770" to-port="0" />
		<edge from-layer="2768" from-port="0" to-layer="2769" to-port="0" />
		<edge from-layer="2769" from-port="1" to-layer="2770" to-port="1" />
		<edge from-layer="2770" from-port="2" to-layer="2772" to-port="0" />
		<edge from-layer="2771" from-port="0" to-layer="2772" to-port="1" />
		<edge from-layer="2772" from-port="2" to-layer="2774" to-port="0" />
		<edge from-layer="2773" from-port="0" to-layer="2774" to-port="1" />
		<edge from-layer="2774" from-port="2" to-layer="2775" to-port="1" />
		<edge from-layer="2775" from-port="2" to-layer="2776" to-port="0" />
		<edge from-layer="2776" from-port="1" to-layer="2787" to-port="0" />
		<edge from-layer="2777" from-port="0" to-layer="2778" to-port="0" />
		<edge from-layer="2778" from-port="1" to-layer="2779" to-port="1" />
		<edge from-layer="2779" from-port="2" to-layer="2782" to-port="0" />
		<edge from-layer="2780" from-port="0" to-layer="2781" to-port="0" />
		<edge from-layer="2781" from-port="1" to-layer="2782" to-port="1" />
		<edge from-layer="2782" from-port="2" to-layer="2784" to-port="0" />
		<edge from-layer="2783" from-port="0" to-layer="2784" to-port="1" />
		<edge from-layer="2784" from-port="2" to-layer="2786" to-port="0" />
		<edge from-layer="2785" from-port="0" to-layer="2786" to-port="1" />
		<edge from-layer="2786" from-port="2" to-layer="2787" to-port="1" />
		<edge from-layer="2787" from-port="2" to-layer="2789" to-port="0" />
		<edge from-layer="2788" from-port="0" to-layer="2789" to-port="1" />
		<edge from-layer="2789" from-port="2" to-layer="2791" to-port="0" />
		<edge from-layer="2790" from-port="0" to-layer="2791" to-port="1" />
		<edge from-layer="2791" from-port="2" to-layer="2794" to-port="0" />
		<edge from-layer="2792" from-port="0" to-layer="2793" to-port="0" />
		<edge from-layer="2793" from-port="1" to-layer="2794" to-port="1" />
		<edge from-layer="2794" from-port="2" to-layer="2797" to-port="0" />
		<edge from-layer="2795" from-port="0" to-layer="2796" to-port="0" />
		<edge from-layer="2796" from-port="1" to-layer="2797" to-port="1" />
		<edge from-layer="2797" from-port="2" to-layer="2799" to-port="0" />
		<edge from-layer="2798" from-port="0" to-layer="2799" to-port="1" />
		<edge from-layer="2799" from-port="2" to-layer="2800" to-port="1" />
		<edge from-layer="2800" from-port="2" to-layer="2802" to-port="0" />
		<edge from-layer="2801" from-port="0" to-layer="2802" to-port="1" />
		<edge from-layer="2802" from-port="2" to-layer="2805" to-port="0" />
		<edge from-layer="2803" from-port="0" to-layer="2804" to-port="0" />
		<edge from-layer="2804" from-port="1" to-layer="2805" to-port="1" />
		<edge from-layer="2805" from-port="2" to-layer="2808" to-port="0" />
		<edge from-layer="2806" from-port="0" to-layer="2807" to-port="0" />
		<edge from-layer="2807" from-port="1" to-layer="2808" to-port="1" />
		<edge from-layer="2808" from-port="2" to-layer="2811" to-port="0" />
		<edge from-layer="2808" from-port="2" to-layer="2822" to-port="0" />
		<edge from-layer="2809" from-port="0" to-layer="2810" to-port="0" />
		<edge from-layer="2810" from-port="1" to-layer="2811" to-port="1" />
		<edge from-layer="2811" from-port="2" to-layer="2814" to-port="0" />
		<edge from-layer="2812" from-port="0" to-layer="2813" to-port="0" />
		<edge from-layer="2813" from-port="1" to-layer="2814" to-port="1" />
		<edge from-layer="2814" from-port="2" to-layer="2815" to-port="0" />
		<edge from-layer="2815" from-port="1" to-layer="2818" to-port="0" />
		<edge from-layer="2816" from-port="0" to-layer="2817" to-port="0" />
		<edge from-layer="2817" from-port="1" to-layer="2818" to-port="1" />
		<edge from-layer="2818" from-port="2" to-layer="2821" to-port="0" />
		<edge from-layer="2819" from-port="0" to-layer="2820" to-port="0" />
		<edge from-layer="2820" from-port="1" to-layer="2821" to-port="1" />
		<edge from-layer="2821" from-port="2" to-layer="2822" to-port="1" />
		<edge from-layer="2822" from-port="2" to-layer="2824" to-port="0" />
		<edge from-layer="2823" from-port="0" to-layer="2824" to-port="1" />
		<edge from-layer="2824" from-port="2" to-layer="2827" to-port="0" />
		<edge from-layer="2825" from-port="0" to-layer="2826" to-port="0" />
		<edge from-layer="2826" from-port="1" to-layer="2827" to-port="1" />
		<edge from-layer="2827" from-port="2" to-layer="2830" to-port="0" />
		<edge from-layer="2828" from-port="0" to-layer="2829" to-port="0" />
		<edge from-layer="2829" from-port="1" to-layer="2830" to-port="1" />
		<edge from-layer="2830" from-port="2" to-layer="2859" to-port="0" />
		<edge from-layer="2830" from-port="2" to-layer="2880" to-port="0" />
		<edge from-layer="2830" from-port="2" to-layer="2831" to-port="0" />
		<edge from-layer="2831" from-port="2" to-layer="2834" to-port="0" />
		<edge from-layer="2831" from-port="2" to-layer="2847" to-port="0" />
		<edge from-layer="2832" from-port="0" to-layer="2833" to-port="0" />
		<edge from-layer="2833" from-port="1" to-layer="2834" to-port="1" />
		<edge from-layer="2834" from-port="2" to-layer="2837" to-port="0" />
		<edge from-layer="2835" from-port="0" to-layer="2836" to-port="0" />
		<edge from-layer="2836" from-port="1" to-layer="2837" to-port="1" />
		<edge from-layer="2837" from-port="2" to-layer="2839" to-port="0" />
		<edge from-layer="2838" from-port="0" to-layer="2839" to-port="1" />
		<edge from-layer="2839" from-port="2" to-layer="2841" to-port="0" />
		<edge from-layer="2840" from-port="0" to-layer="2841" to-port="1" />
		<edge from-layer="2841" from-port="2" to-layer="2844" to-port="0" />
		<edge from-layer="2842" from-port="0" to-layer="2843" to-port="0" />
		<edge from-layer="2843" from-port="1" to-layer="2844" to-port="1" />
		<edge from-layer="2844" from-port="2" to-layer="2855" to-port="0" />
		<edge from-layer="2845" from-port="0" to-layer="2846" to-port="0" />
		<edge from-layer="2846" from-port="1" to-layer="2847" to-port="1" />
		<edge from-layer="2847" from-port="2" to-layer="2850" to-port="0" />
		<edge from-layer="2848" from-port="0" to-layer="2849" to-port="0" />
		<edge from-layer="2849" from-port="1" to-layer="2850" to-port="1" />
		<edge from-layer="2850" from-port="2" to-layer="2852" to-port="0" />
		<edge from-layer="2851" from-port="0" to-layer="2852" to-port="1" />
		<edge from-layer="2852" from-port="2" to-layer="2854" to-port="0" />
		<edge from-layer="2853" from-port="0" to-layer="2854" to-port="1" />
		<edge from-layer="2854" from-port="2" to-layer="2855" to-port="1" />
		<edge from-layer="2855" from-port="2" to-layer="2856" to-port="0" />
		<edge from-layer="2856" from-port="1" to-layer="2867" to-port="0" />
		<edge from-layer="2857" from-port="0" to-layer="2858" to-port="0" />
		<edge from-layer="2858" from-port="1" to-layer="2859" to-port="1" />
		<edge from-layer="2859" from-port="2" to-layer="2862" to-port="0" />
		<edge from-layer="2860" from-port="0" to-layer="2861" to-port="0" />
		<edge from-layer="2861" from-port="1" to-layer="2862" to-port="1" />
		<edge from-layer="2862" from-port="2" to-layer="2864" to-port="0" />
		<edge from-layer="2863" from-port="0" to-layer="2864" to-port="1" />
		<edge from-layer="2864" from-port="2" to-layer="2866" to-port="0" />
		<edge from-layer="2865" from-port="0" to-layer="2866" to-port="1" />
		<edge from-layer="2866" from-port="2" to-layer="2867" to-port="1" />
		<edge from-layer="2867" from-port="2" to-layer="2869" to-port="0" />
		<edge from-layer="2868" from-port="0" to-layer="2869" to-port="1" />
		<edge from-layer="2869" from-port="2" to-layer="2871" to-port="0" />
		<edge from-layer="2870" from-port="0" to-layer="2871" to-port="1" />
		<edge from-layer="2871" from-port="2" to-layer="2874" to-port="0" />
		<edge from-layer="2872" from-port="0" to-layer="2873" to-port="0" />
		<edge from-layer="2873" from-port="1" to-layer="2874" to-port="1" />
		<edge from-layer="2874" from-port="2" to-layer="2877" to-port="0" />
		<edge from-layer="2875" from-port="0" to-layer="2876" to-port="0" />
		<edge from-layer="2876" from-port="1" to-layer="2877" to-port="1" />
		<edge from-layer="2877" from-port="2" to-layer="2879" to-port="0" />
		<edge from-layer="2878" from-port="0" to-layer="2879" to-port="1" />
		<edge from-layer="2879" from-port="2" to-layer="2880" to-port="1" />
		<edge from-layer="2880" from-port="2" to-layer="2882" to-port="0" />
		<edge from-layer="2881" from-port="0" to-layer="2882" to-port="1" />
		<edge from-layer="2882" from-port="2" to-layer="2885" to-port="0" />
		<edge from-layer="2883" from-port="0" to-layer="2884" to-port="0" />
		<edge from-layer="2884" from-port="1" to-layer="2885" to-port="1" />
		<edge from-layer="2885" from-port="2" to-layer="2888" to-port="0" />
		<edge from-layer="2886" from-port="0" to-layer="2887" to-port="0" />
		<edge from-layer="2887" from-port="1" to-layer="2888" to-port="1" />
		<edge from-layer="2888" from-port="2" to-layer="2902" to-port="0" />
		<edge from-layer="2888" from-port="2" to-layer="2891" to-port="0" />
		<edge from-layer="2889" from-port="0" to-layer="2890" to-port="0" />
		<edge from-layer="2890" from-port="1" to-layer="2891" to-port="1" />
		<edge from-layer="2891" from-port="2" to-layer="2894" to-port="0" />
		<edge from-layer="2892" from-port="0" to-layer="2893" to-port="0" />
		<edge from-layer="2893" from-port="1" to-layer="2894" to-port="1" />
		<edge from-layer="2894" from-port="2" to-layer="2895" to-port="0" />
		<edge from-layer="2895" from-port="1" to-layer="2898" to-port="0" />
		<edge from-layer="2896" from-port="0" to-layer="2897" to-port="0" />
		<edge from-layer="2897" from-port="1" to-layer="2898" to-port="1" />
		<edge from-layer="2898" from-port="2" to-layer="2901" to-port="0" />
		<edge from-layer="2899" from-port="0" to-layer="2900" to-port="0" />
		<edge from-layer="2900" from-port="1" to-layer="2901" to-port="1" />
		<edge from-layer="2901" from-port="2" to-layer="2902" to-port="1" />
		<edge from-layer="2902" from-port="2" to-layer="2904" to-port="0" />
		<edge from-layer="2903" from-port="0" to-layer="2904" to-port="1" />
		<edge from-layer="2904" from-port="2" to-layer="2907" to-port="0" />
		<edge from-layer="2905" from-port="0" to-layer="2906" to-port="0" />
		<edge from-layer="2906" from-port="1" to-layer="2907" to-port="1" />
		<edge from-layer="2907" from-port="2" to-layer="2910" to-port="0" />
		<edge from-layer="2908" from-port="0" to-layer="2909" to-port="0" />
		<edge from-layer="2909" from-port="1" to-layer="2910" to-port="1" />
		<edge from-layer="2910" from-port="2" to-layer="2939" to-port="0" />
		<edge from-layer="2910" from-port="2" to-layer="2960" to-port="0" />
		<edge from-layer="2910" from-port="2" to-layer="2911" to-port="0" />
		<edge from-layer="2911" from-port="2" to-layer="2914" to-port="0" />
		<edge from-layer="2911" from-port="2" to-layer="2927" to-port="0" />
		<edge from-layer="2912" from-port="0" to-layer="2913" to-port="0" />
		<edge from-layer="2913" from-port="1" to-layer="2914" to-port="1" />
		<edge from-layer="2914" from-port="2" to-layer="2917" to-port="0" />
		<edge from-layer="2915" from-port="0" to-layer="2916" to-port="0" />
		<edge from-layer="2916" from-port="1" to-layer="2917" to-port="1" />
		<edge from-layer="2917" from-port="2" to-layer="2919" to-port="0" />
		<edge from-layer="2918" from-port="0" to-layer="2919" to-port="1" />
		<edge from-layer="2919" from-port="2" to-layer="2921" to-port="0" />
		<edge from-layer="2920" from-port="0" to-layer="2921" to-port="1" />
		<edge from-layer="2921" from-port="2" to-layer="2924" to-port="0" />
		<edge from-layer="2922" from-port="0" to-layer="2923" to-port="0" />
		<edge from-layer="2923" from-port="1" to-layer="2924" to-port="1" />
		<edge from-layer="2924" from-port="2" to-layer="2935" to-port="0" />
		<edge from-layer="2925" from-port="0" to-layer="2926" to-port="0" />
		<edge from-layer="2926" from-port="1" to-layer="2927" to-port="1" />
		<edge from-layer="2927" from-port="2" to-layer="2930" to-port="0" />
		<edge from-layer="2928" from-port="0" to-layer="2929" to-port="0" />
		<edge from-layer="2929" from-port="1" to-layer="2930" to-port="1" />
		<edge from-layer="2930" from-port="2" to-layer="2932" to-port="0" />
		<edge from-layer="2931" from-port="0" to-layer="2932" to-port="1" />
		<edge from-layer="2932" from-port="2" to-layer="2934" to-port="0" />
		<edge from-layer="2933" from-port="0" to-layer="2934" to-port="1" />
		<edge from-layer="2934" from-port="2" to-layer="2935" to-port="1" />
		<edge from-layer="2935" from-port="2" to-layer="2936" to-port="0" />
		<edge from-layer="2936" from-port="1" to-layer="2947" to-port="0" />
		<edge from-layer="2937" from-port="0" to-layer="2938" to-port="0" />
		<edge from-layer="2938" from-port="1" to-layer="2939" to-port="1" />
		<edge from-layer="2939" from-port="2" to-layer="2942" to-port="0" />
		<edge from-layer="2940" from-port="0" to-layer="2941" to-port="0" />
		<edge from-layer="2941" from-port="1" to-layer="2942" to-port="1" />
		<edge from-layer="2942" from-port="2" to-layer="2944" to-port="0" />
		<edge from-layer="2943" from-port="0" to-layer="2944" to-port="1" />
		<edge from-layer="2944" from-port="2" to-layer="2946" to-port="0" />
		<edge from-layer="2945" from-port="0" to-layer="2946" to-port="1" />
		<edge from-layer="2946" from-port="2" to-layer="2947" to-port="1" />
		<edge from-layer="2947" from-port="2" to-layer="2949" to-port="0" />
		<edge from-layer="2948" from-port="0" to-layer="2949" to-port="1" />
		<edge from-layer="2949" from-port="2" to-layer="2951" to-port="0" />
		<edge from-layer="2950" from-port="0" to-layer="2951" to-port="1" />
		<edge from-layer="2951" from-port="2" to-layer="2954" to-port="0" />
		<edge from-layer="2952" from-port="0" to-layer="2953" to-port="0" />
		<edge from-layer="2953" from-port="1" to-layer="2954" to-port="1" />
		<edge from-layer="2954" from-port="2" to-layer="2957" to-port="0" />
		<edge from-layer="2955" from-port="0" to-layer="2956" to-port="0" />
		<edge from-layer="2956" from-port="1" to-layer="2957" to-port="1" />
		<edge from-layer="2957" from-port="2" to-layer="2959" to-port="0" />
		<edge from-layer="2958" from-port="0" to-layer="2959" to-port="1" />
		<edge from-layer="2959" from-port="2" to-layer="2960" to-port="1" />
		<edge from-layer="2960" from-port="2" to-layer="2962" to-port="0" />
		<edge from-layer="2961" from-port="0" to-layer="2962" to-port="1" />
		<edge from-layer="2962" from-port="2" to-layer="2965" to-port="0" />
		<edge from-layer="2963" from-port="0" to-layer="2964" to-port="0" />
		<edge from-layer="2964" from-port="1" to-layer="2965" to-port="1" />
		<edge from-layer="2965" from-port="2" to-layer="2968" to-port="0" />
		<edge from-layer="2966" from-port="0" to-layer="2967" to-port="0" />
		<edge from-layer="2967" from-port="1" to-layer="2968" to-port="1" />
		<edge from-layer="2968" from-port="2" to-layer="2971" to-port="0" />
		<edge from-layer="2968" from-port="2" to-layer="2982" to-port="0" />
		<edge from-layer="2969" from-port="0" to-layer="2970" to-port="0" />
		<edge from-layer="2970" from-port="1" to-layer="2971" to-port="1" />
		<edge from-layer="2971" from-port="2" to-layer="2974" to-port="0" />
		<edge from-layer="2972" from-port="0" to-layer="2973" to-port="0" />
		<edge from-layer="2973" from-port="1" to-layer="2974" to-port="1" />
		<edge from-layer="2974" from-port="2" to-layer="2975" to-port="0" />
		<edge from-layer="2975" from-port="1" to-layer="2978" to-port="0" />
		<edge from-layer="2976" from-port="0" to-layer="2977" to-port="0" />
		<edge from-layer="2977" from-port="1" to-layer="2978" to-port="1" />
		<edge from-layer="2978" from-port="2" to-layer="2981" to-port="0" />
		<edge from-layer="2979" from-port="0" to-layer="2980" to-port="0" />
		<edge from-layer="2980" from-port="1" to-layer="2981" to-port="1" />
		<edge from-layer="2981" from-port="2" to-layer="2982" to-port="1" />
		<edge from-layer="2982" from-port="2" to-layer="2984" to-port="0" />
		<edge from-layer="2983" from-port="0" to-layer="2984" to-port="1" />
		<edge from-layer="2984" from-port="2" to-layer="2987" to-port="0" />
		<edge from-layer="2985" from-port="0" to-layer="2986" to-port="0" />
		<edge from-layer="2986" from-port="1" to-layer="2987" to-port="1" />
		<edge from-layer="2987" from-port="2" to-layer="2990" to-port="0" />
		<edge from-layer="2988" from-port="0" to-layer="2989" to-port="0" />
		<edge from-layer="2989" from-port="1" to-layer="2990" to-port="1" />
		<edge from-layer="2990" from-port="2" to-layer="3040" to-port="0" />
		<edge from-layer="2990" from-port="2" to-layer="3019" to-port="0" />
		<edge from-layer="2990" from-port="2" to-layer="2991" to-port="0" />
		<edge from-layer="2991" from-port="2" to-layer="2994" to-port="0" />
		<edge from-layer="2991" from-port="2" to-layer="3007" to-port="0" />
		<edge from-layer="2992" from-port="0" to-layer="2993" to-port="0" />
		<edge from-layer="2993" from-port="1" to-layer="2994" to-port="1" />
		<edge from-layer="2994" from-port="2" to-layer="2997" to-port="0" />
		<edge from-layer="2995" from-port="0" to-layer="2996" to-port="0" />
		<edge from-layer="2996" from-port="1" to-layer="2997" to-port="1" />
		<edge from-layer="2997" from-port="2" to-layer="2999" to-port="0" />
		<edge from-layer="2998" from-port="0" to-layer="2999" to-port="1" />
		<edge from-layer="2999" from-port="2" to-layer="3001" to-port="0" />
		<edge from-layer="3000" from-port="0" to-layer="3001" to-port="1" />
		<edge from-layer="3001" from-port="2" to-layer="3004" to-port="0" />
		<edge from-layer="3002" from-port="0" to-layer="3003" to-port="0" />
		<edge from-layer="3003" from-port="1" to-layer="3004" to-port="1" />
		<edge from-layer="3004" from-port="2" to-layer="3015" to-port="0" />
		<edge from-layer="3005" from-port="0" to-layer="3006" to-port="0" />
		<edge from-layer="3006" from-port="1" to-layer="3007" to-port="1" />
		<edge from-layer="3007" from-port="2" to-layer="3010" to-port="0" />
		<edge from-layer="3008" from-port="0" to-layer="3009" to-port="0" />
		<edge from-layer="3009" from-port="1" to-layer="3010" to-port="1" />
		<edge from-layer="3010" from-port="2" to-layer="3012" to-port="0" />
		<edge from-layer="3011" from-port="0" to-layer="3012" to-port="1" />
		<edge from-layer="3012" from-port="2" to-layer="3014" to-port="0" />
		<edge from-layer="3013" from-port="0" to-layer="3014" to-port="1" />
		<edge from-layer="3014" from-port="2" to-layer="3015" to-port="1" />
		<edge from-layer="3015" from-port="2" to-layer="3016" to-port="0" />
		<edge from-layer="3016" from-port="1" to-layer="3027" to-port="0" />
		<edge from-layer="3017" from-port="0" to-layer="3018" to-port="0" />
		<edge from-layer="3018" from-port="1" to-layer="3019" to-port="1" />
		<edge from-layer="3019" from-port="2" to-layer="3022" to-port="0" />
		<edge from-layer="3020" from-port="0" to-layer="3021" to-port="0" />
		<edge from-layer="3021" from-port="1" to-layer="3022" to-port="1" />
		<edge from-layer="3022" from-port="2" to-layer="3024" to-port="0" />
		<edge from-layer="3023" from-port="0" to-layer="3024" to-port="1" />
		<edge from-layer="3024" from-port="2" to-layer="3026" to-port="0" />
		<edge from-layer="3025" from-port="0" to-layer="3026" to-port="1" />
		<edge from-layer="3026" from-port="2" to-layer="3027" to-port="1" />
		<edge from-layer="3027" from-port="2" to-layer="3029" to-port="0" />
		<edge from-layer="3028" from-port="0" to-layer="3029" to-port="1" />
		<edge from-layer="3029" from-port="2" to-layer="3031" to-port="0" />
		<edge from-layer="3030" from-port="0" to-layer="3031" to-port="1" />
		<edge from-layer="3031" from-port="2" to-layer="3034" to-port="0" />
		<edge from-layer="3032" from-port="0" to-layer="3033" to-port="0" />
		<edge from-layer="3033" from-port="1" to-layer="3034" to-port="1" />
		<edge from-layer="3034" from-port="2" to-layer="3037" to-port="0" />
		<edge from-layer="3035" from-port="0" to-layer="3036" to-port="0" />
		<edge from-layer="3036" from-port="1" to-layer="3037" to-port="1" />
		<edge from-layer="3037" from-port="2" to-layer="3039" to-port="0" />
		<edge from-layer="3038" from-port="0" to-layer="3039" to-port="1" />
		<edge from-layer="3039" from-port="2" to-layer="3040" to-port="1" />
		<edge from-layer="3040" from-port="2" to-layer="3042" to-port="0" />
		<edge from-layer="3041" from-port="0" to-layer="3042" to-port="1" />
		<edge from-layer="3042" from-port="2" to-layer="3045" to-port="0" />
		<edge from-layer="3043" from-port="0" to-layer="3044" to-port="0" />
		<edge from-layer="3044" from-port="1" to-layer="3045" to-port="1" />
		<edge from-layer="3045" from-port="2" to-layer="3048" to-port="0" />
		<edge from-layer="3046" from-port="0" to-layer="3047" to-port="0" />
		<edge from-layer="3047" from-port="1" to-layer="3048" to-port="1" />
		<edge from-layer="3048" from-port="2" to-layer="3062" to-port="0" />
		<edge from-layer="3048" from-port="2" to-layer="3051" to-port="0" />
		<edge from-layer="3049" from-port="0" to-layer="3050" to-port="0" />
		<edge from-layer="3050" from-port="1" to-layer="3051" to-port="1" />
		<edge from-layer="3051" from-port="2" to-layer="3054" to-port="0" />
		<edge from-layer="3052" from-port="0" to-layer="3053" to-port="0" />
		<edge from-layer="3053" from-port="1" to-layer="3054" to-port="1" />
		<edge from-layer="3054" from-port="2" to-layer="3055" to-port="0" />
		<edge from-layer="3055" from-port="1" to-layer="3058" to-port="0" />
		<edge from-layer="3056" from-port="0" to-layer="3057" to-port="0" />
		<edge from-layer="3057" from-port="1" to-layer="3058" to-port="1" />
		<edge from-layer="3058" from-port="2" to-layer="3061" to-port="0" />
		<edge from-layer="3059" from-port="0" to-layer="3060" to-port="0" />
		<edge from-layer="3060" from-port="1" to-layer="3061" to-port="1" />
		<edge from-layer="3061" from-port="2" to-layer="3062" to-port="1" />
		<edge from-layer="3062" from-port="2" to-layer="3064" to-port="0" />
		<edge from-layer="3063" from-port="0" to-layer="3064" to-port="1" />
		<edge from-layer="3064" from-port="2" to-layer="3067" to-port="0" />
		<edge from-layer="3065" from-port="0" to-layer="3066" to-port="0" />
		<edge from-layer="3066" from-port="1" to-layer="3067" to-port="1" />
		<edge from-layer="3067" from-port="2" to-layer="3070" to-port="0" />
		<edge from-layer="3068" from-port="0" to-layer="3069" to-port="0" />
		<edge from-layer="3069" from-port="1" to-layer="3070" to-port="1" />
		<edge from-layer="3070" from-port="2" to-layer="3086" to-port="0" />
		<edge from-layer="3070" from-port="2" to-layer="3071" to-port="0" />
		<edge from-layer="3071" from-port="2" to-layer="3074" to-port="0" />
		<edge from-layer="3072" from-port="0" to-layer="3073" to-port="0" />
		<edge from-layer="3073" from-port="1" to-layer="3074" to-port="1" />
		<edge from-layer="3074" from-port="2" to-layer="3077" to-port="0" />
		<edge from-layer="3075" from-port="0" to-layer="3076" to-port="0" />
		<edge from-layer="3076" from-port="1" to-layer="3077" to-port="1" />
		<edge from-layer="3077" from-port="2" to-layer="3079" to-port="0" />
		<edge from-layer="3078" from-port="0" to-layer="3079" to-port="1" />
		<edge from-layer="3079" from-port="2" to-layer="3081" to-port="0" />
		<edge from-layer="3080" from-port="0" to-layer="3081" to-port="1" />
		<edge from-layer="3081" from-port="2" to-layer="3082" to-port="1" />
		<edge from-layer="3082" from-port="2" to-layer="3083" to-port="0" />
		<edge from-layer="3083" from-port="1" to-layer="3094" to-port="0" />
		<edge from-layer="3084" from-port="0" to-layer="3085" to-port="0" />
		<edge from-layer="3085" from-port="1" to-layer="3086" to-port="1" />
		<edge from-layer="3086" from-port="2" to-layer="3089" to-port="0" />
		<edge from-layer="3087" from-port="0" to-layer="3088" to-port="0" />
		<edge from-layer="3088" from-port="1" to-layer="3089" to-port="1" />
		<edge from-layer="3089" from-port="2" to-layer="3091" to-port="0" />
		<edge from-layer="3090" from-port="0" to-layer="3091" to-port="1" />
		<edge from-layer="3091" from-port="2" to-layer="3093" to-port="0" />
		<edge from-layer="3092" from-port="0" to-layer="3093" to-port="1" />
		<edge from-layer="3093" from-port="2" to-layer="3094" to-port="1" />
		<edge from-layer="3094" from-port="2" to-layer="3096" to-port="0" />
		<edge from-layer="3095" from-port="0" to-layer="3096" to-port="1" />
		<edge from-layer="3096" from-port="2" to-layer="3098" to-port="0" />
		<edge from-layer="3097" from-port="0" to-layer="3098" to-port="1" />
		<edge from-layer="3098" from-port="2" to-layer="3101" to-port="0" />
		<edge from-layer="3099" from-port="0" to-layer="3100" to-port="0" />
		<edge from-layer="3100" from-port="1" to-layer="3101" to-port="1" />
		<edge from-layer="3101" from-port="2" to-layer="3104" to-port="0" />
		<edge from-layer="3102" from-port="0" to-layer="3103" to-port="0" />
		<edge from-layer="3103" from-port="1" to-layer="3104" to-port="1" />
		<edge from-layer="3104" from-port="2" to-layer="3106" to-port="0" />
		<edge from-layer="3105" from-port="0" to-layer="3106" to-port="1" />
		<edge from-layer="3106" from-port="2" to-layer="3107" to-port="1" />
		<edge from-layer="3107" from-port="2" to-layer="3109" to-port="0" />
		<edge from-layer="3108" from-port="0" to-layer="3109" to-port="1" />
		<edge from-layer="3109" from-port="2" to-layer="3112" to-port="0" />
		<edge from-layer="3110" from-port="0" to-layer="3111" to-port="0" />
		<edge from-layer="3111" from-port="1" to-layer="3112" to-port="1" />
		<edge from-layer="3112" from-port="2" to-layer="3115" to-port="0" />
		<edge from-layer="3113" from-port="0" to-layer="3114" to-port="0" />
		<edge from-layer="3114" from-port="1" to-layer="3115" to-port="1" />
		<edge from-layer="3115" from-port="2" to-layer="3118" to-port="0" />
		<edge from-layer="3115" from-port="2" to-layer="3129" to-port="0" />
		<edge from-layer="3116" from-port="0" to-layer="3117" to-port="0" />
		<edge from-layer="3117" from-port="1" to-layer="3118" to-port="1" />
		<edge from-layer="3118" from-port="2" to-layer="3121" to-port="0" />
		<edge from-layer="3119" from-port="0" to-layer="3120" to-port="0" />
		<edge from-layer="3120" from-port="1" to-layer="3121" to-port="1" />
		<edge from-layer="3121" from-port="2" to-layer="3122" to-port="0" />
		<edge from-layer="3122" from-port="1" to-layer="3125" to-port="0" />
		<edge from-layer="3123" from-port="0" to-layer="3124" to-port="0" />
		<edge from-layer="3124" from-port="1" to-layer="3125" to-port="1" />
		<edge from-layer="3125" from-port="2" to-layer="3128" to-port="0" />
		<edge from-layer="3126" from-port="0" to-layer="3127" to-port="0" />
		<edge from-layer="3127" from-port="1" to-layer="3128" to-port="1" />
		<edge from-layer="3128" from-port="2" to-layer="3129" to-port="1" />
		<edge from-layer="3129" from-port="2" to-layer="3131" to-port="0" />
		<edge from-layer="3130" from-port="0" to-layer="3131" to-port="1" />
		<edge from-layer="3131" from-port="2" to-layer="3134" to-port="0" />
		<edge from-layer="3132" from-port="0" to-layer="3133" to-port="0" />
		<edge from-layer="3133" from-port="1" to-layer="3134" to-port="1" />
		<edge from-layer="3134" from-port="2" to-layer="3137" to-port="0" />
		<edge from-layer="3135" from-port="0" to-layer="3136" to-port="0" />
		<edge from-layer="3136" from-port="1" to-layer="3137" to-port="1" />
		<edge from-layer="3137" from-port="2" to-layer="3139" to-port="0" />
		<edge from-layer="3138" from-port="0" to-layer="3139" to-port="1" />
		<edge from-layer="3139" from-port="2" to-layer="3142" to-port="0" />
		<edge from-layer="3140" from-port="0" to-layer="3141" to-port="0" />
		<edge from-layer="3141" from-port="1" to-layer="3142" to-port="1" />
		<edge from-layer="3142" from-port="2" to-layer="3145" to-port="0" />
		<edge from-layer="3143" from-port="0" to-layer="3144" to-port="0" />
		<edge from-layer="3144" from-port="1" to-layer="3145" to-port="1" />
		<edge from-layer="3145" from-port="2" to-layer="3147" to-port="0" />
		<edge from-layer="3146" from-port="0" to-layer="3147" to-port="1" />
		<edge from-layer="3147" from-port="2" to-layer="3150" to-port="0" />
		<edge from-layer="3148" from-port="0" to-layer="3149" to-port="0" />
		<edge from-layer="3149" from-port="1" to-layer="3150" to-port="1" />
		<edge from-layer="3150" from-port="2" to-layer="3153" to-port="0" />
		<edge from-layer="3151" from-port="0" to-layer="3152" to-port="0" />
		<edge from-layer="3152" from-port="1" to-layer="3153" to-port="1" />
		<edge from-layer="3153" from-port="2" to-layer="3156" to-port="0" />
		<edge from-layer="3154" from-port="0" to-layer="3155" to-port="0" />
		<edge from-layer="3155" from-port="1" to-layer="3156" to-port="1" />
		<edge from-layer="3156" from-port="2" to-layer="3157" to-port="0" />
	</edges>
	<rt_info>
		<Runtime_version value="2026.1.0-21367-63e31528c62-releases/2026/1" />
		<conversion_parameters>
			<framework value="pytorch" />
			<is_python_object value="True" />
		</conversion_parameters>
	</rt_info>
</net>
